model/ModelNN-CreditFraudDetection.pt (torch, 169493 bytes, 10 tensors)

arch.0.weight f4 [256, 29]
-0.13884732 0.024902374 0.037926674 -0.12633981 -0.16100492 -0.028020248 0.12877898 -0.07702276
0.016200438 -0.11302401 0.10949664 0.1773855 -0.061991513 -0.009834722 -0.03770022 0.18404569
-0.085009135 0.17212059 0.1083142 0.021049783 0.16353612 -0.08074534 -0.16013898 0.051753134
-0.03194715 -0.17181516 0.16748987 0.07051478 -0.14435714 -0.053707663 -0.028711077 -0.058397543
0.07750656 -0.064292565 0.01794467 -0.12934984 0.17066875 0.11500612 -0.024745543 -0.1586508
-0.049656563 -0.041110117 -0.016130311 0.18344413 0.05905311 0.15090129 0.16900717 0.06334661
-0.10209909 -0.04750681 -0.10673004 -0.11323085 -0.08912333 0.17741245 0.11519281 0.018549101
0.13859777 0.14833383 0.7763474 -14.916386 12.31413 -13.738726 17.83953 -11.282638
-11.406833 -14.0211735 4.4262857 -14.974162 -16.52175 18.006628 -18.205536 -0.7542763
-18.095737 2.9961572 -14.7253065 -12.726528 -12.557806 6.618614 5.036701 3.4959764
-1.7873939 -0.20675708 -3.8101292 5.5459757 2.7505355 6.762292 3.4078233 0.5313413
-16.885351 13.263463 -16.114996 20.32389 -12.757735 -12.92266 -15.933265 4.498469
-17.504263 -19.35853 20.716343 -20.849735 -1.4247797 -20.843067 2.7866626 -16.905043
-15.369155 -14.054884 7.6678095 6.683198 3.0416665 -1.0649855 0.36578938 -3.6151955
6.2428713 3.3110754 7.6799965 3.9406133 0.4894225 -16.150291 13.143731 -15.478433
19.224215 -11.76127 -12.019277 -15.432743 4.7052426 -16.317863 -18.308884 19.745695
-19.861784 -0.87343544 -19.77398 3.4023771 -16.147324 -13.803838 -13.288692 7.342792
6.1974254 3.1466682 -0.7089623 0.1502893 -3.9637036 5.929327 2.695107 6.931017
3.8985033 -0.04492542 0.10545246 0.07223748 0.043767482 -0.054246888 0.021569088 -0.16151957
-0.005180627 -0.06749636 -0.08148036 -0.049607366 -0.111609064 0.086103275 0.08813198 -0.10589255
-0.084656544 -0.16286623 0.1436824 -0.11350956 0.03759943 0.064870015 0.18236955 0.0539878
-0.059250012 -0.11747075 0.08586101 0.1568302 -0.11243264 0.009283081 -0.007443999 -0.11561786
-0.024983553 -0.123032846 0.12723038 0.17048682 -0.095303304 -0.010744208 -0.12982607 0.11637055
0.16876507 -0.060973585 0.07377985 -0.06443652 0.08007536 0.17229651 0.006370701 0.062056918
-0.1502876 -0.12070062 0.17845275 0.117190085 -0.16788101 -0.14565662 -0.1821918 0.030205153
0.030213287 0.124267995 0.017822634 -0.15519518 -0.098417856 -0.018076971 -0.116958976 0.13628654
0.11838649 -0.16442259 -0.07741912 0.12837659 -0.16685814 -0.1258809 0.025197014 -0.15488684
0.017987072 0.123741046 -0.03933631 0.007791266 -0.039575517 0.14110346 0.06693001 0.028995156
0.08635716 0.03983602 0.018776804 -0.06294253 0.088447645 0.03974022 -0.053800613 0.1423703
0.6823926 -16.335007 14.829911 -16.327435 20.219563 -12.634936 -12.439467 -16.178284
5.1118035 -17.021461 -18.87464 20.993856 -20.649914 -1.5028669 -20.789623 3.0200818
-17.067486 -14.5146885 -13.877906 7.888374 6.092974 3.2868392 -1.3114053 0.12671675
00000000: fe2d 0ebe 1000 cc3c 0059 1b3d 395f 01be
00000010: 79de 24be b88a e5bc a3de 033e 1cbe 9dbd
00000020: c8b6 843c 2279 e7bd c63f e03d 8ba4 353e
00000030: d0ea 7dbd d021 21bc 8c6b 1abd 7976 3c3e
00000040: 4519 aebd 6140 303e d6d3 dd3d 9870 ac3c
00000050: 0376 273e d05d a5bd 79fb 23be 18fb 533d
00000060: 04db 02bd 50f0 2fbe 7782 2b3e 0e6a 903d
00000070: 5cd2 13be 91fc 5bbd 7e33 ebbc 4332 6fbd
00000080: c2bb 9e3d d2ab 83bd b300 933c 4974 04be
00000090: cac3 2e3e 5488 eb3d 2ab7 cabc 5b75 22be
000000a0: ae64 4bbd 1563 28bd b723 84bc c7d8 3b3e
000000b0: ade1 713d de85 1a3e 3710 2d3e debb 813d
000000c0: 5419 d1bd 8096 42bd 4795 dabd 93e5 e7bd
000000d0: 4b86 b6bd 9cab 353e 35ea eb3d 49f4 973c
000000e0: 93ec 0d3e d3e4 173e b4be 463f 84a9 6ec1
000000f0: ad06 4541 d2d1 5bc1 5cb7 8e41 af85 34c1
00000100: 6382 36c1 ba56 60c1 22a4 8d40 2b96 6fc1
00000110: 8b2c 84c1 930d 9041 f0a4 91c1 4018 41bf
00000120: 12c4 90c1 0ac1 3f40 db9a 6bc1 dc9f 4bc1
00000130: c6ec 48c1 b0cb d340 a82c a140 14be 5f40
00000140: 53c9 e4bf 21b8 53be 28d9 73c0 a278 b140
00000150: c608 3040 b264 d840 c719 5a40 fc05 083f
00000160: 3315 87c1 2537 5441 83eb 80c1 5497 a241
00000170: af1f 4cc1 37c3 4ec1 a7ee 7ec1 75f3 8f40
00000180: bb08 8cc1 45de 9ac1 12bb a541 42cc a6c1
00000190: 2e5f b6bf 9abe a6c1 ae58 3240 873d 87c1
000001a0: 0fe8 75c1 cee0 60c1 b25e f540 c2dc d540
000001b0: aaaa 4240 7251 88bf bf48 bb3e 5d5f 67c0
000001c0: 9ac5 c740 a9e8 5340 88c2 f540 0233 7c40
000001d0: 9695 fa3e cc33 81c1 b94c 5241 a9a7 77c1
000001e0: 31cb 9941 292e 3cc1 f54e 40c1 84ec 76c1
000001f0: 5991 9640 fc8a 82c1 9878 92c1 2ff7 9d41
00000200: efe4 9ec1 7799 5fbf 1c31 9ec1 8cc0 5940
00000210: b82d 81c1 85dc 5cc1 7c9e 54c1 27f8 ea40
00000220: 4f51 c640 0363 4940 8e7e 35bf 70e5 193e
00000230: 52ad 7dc0 0cbd bd40 a27c 2c40 e4ca dd40
00000240: 1481 7940 b803 38bd 76f7 d73d 3ef1 933d
00000250: 8845 333d fc31 5ebd a8b1 b03c 6365 25be
00000260: 40c2 a9bb 883b 8abd 2ddf a6bd 1831 4bbd
00000270: 4b93 e4bd ea56 b03d 8a7e b43d 31de d8bd
00000280: 6960 adbd 68c6 26be 7b21 133e b377 e8bd
00000290: dc01 1a3d 92da 843d 15bf 3a3e 5022 5d3d
000002a0: 24b0 72bd 8194 f0bd e6d7 af3d 1998 203e
000002b0: 1543 e6bd 1018 183c caec f3bb 0ec9 ecbd
000002c0: 4faa ccbc a5f8 fbbd ae48 023e 1994 2e3e
000002d0: 612e c3bd 7908 30bc 20f1 04be af53 ee3d
000002e0: c0d0 2c3e 70bf 79bd e419 973d 4bf7 83bd
000002f0: 8dfe a33d 7f6e 303e 50c1 d03b 652f 7e3d
00000300: fee4 19be e331 f7bd 51bc 363e 5b01 f03d
00000310: 00e9 2bbe 0227 15be 7d90 3abe cc70 f73c
00000320: db81 f73c 3880 fe3d c600 923c 7ceb 1ebe
00000330: 4d8f c9bd 2816 94bc 3088 efbd b38e 0b3e
00000340: 9e74 f23d 655e 28be ea8d 9ebd 2775 033e
00000350: dcdc 2abe ece6 00be f869 ce3c a89a 1ebe
00000360: a059 933c f26b fd3d 1c1f 21bd e04d ff3b
00000370: f019 22bd 6d7d 103e 9a12 893d 4087 ed3c
00000380: 06dc b03d 182b 233d d0d1 993c 03e8 80bd
00000390: 0a24 b53d a4c6 223d 085e 5cbd 85c9 113e
000003a0: 48b1 2e3f 18ae 82c1 5147 6d41 969e 82c1
000003b0: aac1 a141 b328 4ac1 0f08 47c1 206d 81c1
000003c0: e593 a340 f42b 88c1 43ff 96c1 6bf3 a741
000003d0: 0633 a5c1 f15d c0bf 2651 a6c1 0549 4140
000003e0: 368a 88c1 2a3c 68c1 e70b 5ec1 8f6d fc40
000003f0: a5f9 c240 935b 5240 21dc a7bf 09c2 013e

arch.0.bias f4 [256]
-0.14381799 0.03049081 -2.430023 -2.9025493 -2.8347092 0.06297876 -0.102771096 -0.16719928
-2.9077265 0.060842007 -3.0138018 -2.9274397 0.020104706 0.1629908 -3.2401848 0.16088708
-0.105218574 -0.11115167 0.07521774 -2.5984938 -0.13104147 -2.8747442 -3.0341961 -3.1402774
-2.7948196 -0.011982769 -2.8152628 -0.10039767 0.014358918 -2.7977273 0.054307967 -2.7732034
0.03504263 -2.9703946 -0.12725857 -2.6028843 -2.6699684 -2.6688197 -2.6027117 0.17096318
-2.2667837 -2.952271 -0.11931844 0.09564591 0.0023990273 0.0072485954 0.0628169 -2.3278077
-3.0496671 -2.9610088 -2.8196404 -2.7045844 -2.579559 -0.011062309 0.094699785 -0.16316071
-0.1848149 -0.18462265 -3.108372 -2.9628205 -0.022596166 -2.948716 -0.12997833 0.1461224
-2.7392085 -2.9350772 -2.8752136 -2.57964 -2.8519967 -0.04191376 -0.13100262 0.036304474
-0.118915424 -2.939497 -2.659996 -2.7246506 -2.8138409 0.17137054 -2.6178484 -3.0404878
-2.9493077 -2.715613 -2.7881515 -3.1929524 -0.11346577 -2.8520155 0.10688739 0.084973976
-0.13446306 -2.531719 -0.057173237 -2.802092 -0.04239268 0.08867584 -2.4436176 0.18081932
-0.08071338 -2.6006918 -0.042929173 -2.6669033 0.027448745 0.16387016 0.09436844 -0.008625358
-0.23393571 0.08167007 -3.139473 -2.9982865 0.011126785 -0.11498842 -0.03164212 0.10437666
-2.7229853 0.052053615 -0.08253703 -3.0839078 -0.15435933 -0.380781 0.08906035 -2.847646
-2.8767328 -2.9297934 -2.9368188 -2.9929264 -2.4534364 -2.989078 -2.9082236 -2.917309
-2.801523 0.018952012 -2.9993744 -0.120239675 -2.6655405 0.103175625 0.15423219 -2.334501
0.011528149 -0.14023378 -0.17101781 -2.588553 0.010402128 -2.4174008 -2.8819854 -2.6034095
-0.16637154 0.15622596 -0.15606254 -0.15954126 -0.06472745 -2.6843126 -0.14665438 -0.032317564
-3.1463351 -0.12263974 -0.18119392 0.07325769 -0.21229294 -2.7991977 -3.1261973 -2.8033338
-2.4812272 -0.12569118 -2.6021497 -3.1696837 -0.11435393 -2.9655879 0.17909619 0.011860572
-0.05888377 0.046301484 -0.11502007 -0.11213504 0.13861978 -3.0254846 -2.5714407 0.11308053
0.063856214 -0.14604725 -2.8088315 -2.8049843 -2.1559744 0.09355779 -2.6954334 -0.034635663
-2.7233374 -2.6848342 -0.18356615 -0.030193545 -0.36884457 -2.8457596 -0.081496835 -0.0045112316
-2.656347 -2.5665824 -0.019338505 -0.11538899 -0.0075687296 -2.7178087 -2.4839647 -2.6923573
-0.075382456 -0.24325866 0.09393965 -0.07335149 0.0424267 0.017113173 -2.575433 0.16299298
-0.08838663 -0.1633375 -2.8404548 -2.5674648 -0.04596147 -0.008634832 -2.7426798 -2.4177485
-0.0006983429 -3.2155051 -2.89307 -3.0771875 -2.5642471 -2.917471 -3.147925 -0.05899568
-2.6963124 -2.6991863 0.0027742584 -2.8621 -2.9702864 0.18537371 0.096265174 -0.09886287
-0.042896226 0.0057250387 -0.30967227 -2.489183 0.092329934 -2.977733 -2.9415011 -0.15604395
0.11536115 0.13544942 0.10498973 0.11015226 -0.020115167 -2.6697533 -0.0070086718 0.19339737
-3.0092008 -2.8100107 -0.10874082 0.07022026 -2.4863367 0.12015005 0.1487575 -2.2311206
00000000: 0645 13be ddc7 f93c 7f85 1bc0 5ec3 39c0
00000010: e06b 35c0 02fb 803d a779 d2bd 4a36 2bbe
00000020: 3118 3ac0 7835 793d 21e2 40c0 2c5b 3bc0
00000030: a0b2 a43c 0fe7 263e 305f 4fc0 95bf 243e
00000040: d67c d7bd 7da3 e3bd c20b 9a3d b94d 26c0
00000050: bc2f 06be cffb 37c0 4530 42c0 4efa 48c0
00000060: 53de 32c0 6053 44bc 442d 34c0 4b9d cdbd
00000070: ab41 6b3c f70d 33c0 0872 5e3d 2a7c 31c0
00000080: dc88 0f3d f21a 3ec0 1250 02be a895 26c0
00000090: c3e0 2ac0 f1cd 2ac0 d492 26c0 f910 2f3e
000000a0: fc12 11c0 02f2 3cc0 3a5d f4bd 01e2 c33d
000000b0: 0039 1d3b a085 ed3b 26a6 803d cdfa 14c0
000000c0: bf2d 43c0 2b81 3dc0 fd74 34c0 e917 2dc0
000000d0: 7f17 25c0 b03e 35bc f6f1 c13d 9a13 27be
000000e0: 1e40 3dbe b80d 3dbe 91ef 46c0 da9e 3dc0
000000f0: 981b b9bc c3b7 3cc0 0a19 05be 1ca1 153e
00000100: 314f 2fc0 4ed8 3bc0 8003 38c0 d218 25c0
00000110: 1d87 36c0 c3ad 2bbd 8d25 06be 00b4 143d
00000120: ee89 f3bd b820 3cc0 603d 2ac0 ad60 2ec0
00000130: f815 34c0 c27b 2f3e d48a 27c0 5a97 42c0
00000140: 75c1 3cc0 9acc 2dc0 1371 32c0 5559 4cc0
00000150: be60 e8bd 6c87 36c0 c7e7 da3d d606 ae3d
00000160: afb0 09be af07 22c0 7c2e 6abd 7a55 33c0
00000170: f2a3 2dbd ae9b b53d 3b64 1cc0 b328 393e
00000180: 0e4d a5bd bc71 26c0 80d6 2fbd 8bae 2ac0
00000190: 31dc e03c 94cd 273e 3e44 c13d 6051 0dbc
000001a0: d88c 6fbe a342 a73d 20ed 48c0 ede3 3fc0
000001b0: 1e4d 363c 0c7f ebbd 2b9b 01bd 6ec3 d53d
000001c0: 6445 2ec0 2c36 553d 2d09 a9bd bf5e 45c0
000001d0: 5f10 1ebe baf5 c2be 4665 b63d d53f 36c0
000001e0: 641c 38c0 bc81 3bc0 d7f4 3bc0 1b8c 3fc0
000001f0: 1a05 1dc0 0e4d 3fc0 5620 3ac0 31b5 3ac0
00000200: 274c 33c0 4041 9b3c c0f5 3fc0 3840 f6bd
00000210: 3798 2ac0 be4d d33d 0bef 1d3e 7768 15c0
00000220: 90e0 3c3c 7299 0fbe 4b1f 2fbe daaa 25c0
00000230: b06d 2a3c b2b6 1ac0 7372 38c0 439e 26c0
00000240: 4d5d 2abe b3f9 1f3e dcce 1fbe c95e 23be
00000250: d38f 84bd c7cb 2bc0 912c 16be 6c5f 04bd
00000260: 8e5d 49c0 8b2a fbbd e68a 39be 2108 963d
00000270: 5263 59be 0e26 33c0 9e13 48c0 d269 33c0
00000280: 6dcc 1ec0 30b5 00be 9f89 26c0 19dc 4ac0
00000290: 6532 eabd 31cc 3dc0 fe64 373e d852 423c
000002a0: 1c30 71bd a0a6 3d3d a48f ebbd 0ea7 e5bd
000002b0: 58f2 0d3e 8aa1 41c0 7c92 24c0 c496 e73d
000002c0: 0cc7 823d 698d 15be e5c3 33c0 dd84 33c0
000002d0: 7cfb 09c0 3a9b bf3d fb81 2cc0 20de 0dbd
000002e0: 294b 2ec0 53d4 2bc0 c4f8 3bbe 7458 f7bc
000002f0: 32d9 bcbe ed20 36c0 d0e7 a6bd f4d2 93bb
00000300: 9701 2ac0 e342 24c0 c96b 9ebc 1051 ecbd
00000310: 1b03 f8bb 94f0 2dc0 47f9 1ec0 954f 2cc0
00000320: 1e62 9abd cc18 79be 6e63 c03d 4e39 96bd
00000330: 9fc7 2d3d ed30 8c3c e5d3 24c0 a2e7 263e
00000340: 0d04 b5bd f241 27be 03ca 35c0 5851 24c0
00000350: 1842 3cbd 1c79 0dbc 1188 2fc0 64bc 1ac0
00000360: 0011 37ba d6ca 4dc0 0f28 39c0 a4f0 44c0
00000370: a01c 24c0 d8b7 3ac0 9a77 49c0 74a5 71bd
00000380: 6290 2cc0 78bf 2cc0 55d0 353b a52c 37c0
00000390: 2c19 3ec0 9bd2 3d3e ad26 c53d 9e78 cabd
000003a0: f4b3 2fbd 1b99 bb3b 5d8d 9ebe c64e 1fc0
000003b0: 7a17 bd3d 2d93 3ec0 8e41 3cc0 fcc9 1fbe
000003c0: 7742 ec3d 41b3 0a3e db04 d73d 8297 e13d
000003d0: 90c8 a4bc 3ddd 2ac0 00a9 e5bb f609 463e
000003e0: bf96 40c0 37d7 33c0 82b3 debd a4cf 8f3d
000003f0: 2420 1fc0 3b11 f63d e353 183e aeca 0ec0

arch.3.weight f4 [128, 256]
0.04291875 0.04113325 -0.90248203 -0.22633168 -0.73580766 0.017207086 -0.021105368 0.0043787956
-1.0890821 0.061245658 0.78543663 -1.0127981 0.035287283 0.026220404 0.005916646 -0.024761677
-0.057690278 -0.0036372228 0.05464678 -0.21904495 -0.021464705 -0.83052653 -0.5087591 -0.15881348
0.0458291 0.0041705593 -0.5270208 0.0011222512 -0.041144762 -0.36276233 0.051092867 0.10920931
-0.014907755 -0.2624687 -0.050071634 0.10798299 -1.0905248 0.030232457 0.13436042 0.00037109107
-0.78771627 -0.17670743 0.0054682735 0.01309644 -0.04483053 -0.02762933 -0.053261854 -0.16928871
0.06862621 -0.30056474 -0.5684667 -0.18003936 -0.3150165 0.055077516 -0.018220121 0.037590854
-0.042860277 0.04575833 0.16518764 -0.75605243 0.054207772 0.3859493 -0.041330792 -0.013493933
-0.38954037 -0.18071045 -0.59392965 -0.10505307 -0.22403012 -0.0042860736 -0.03208615 -0.04278773
-0.03346685 -0.26921603 -0.008861027 -0.0397744 0.016461618 -0.07602041 -0.018019198 0.55833423
-0.23744991 0.30943826 0.18694736 0.63076574 -0.034908187 -0.45178238 0.05803826 -0.048604947
0.036380194 -0.3157114 -0.045409158 0.15659676 -0.014798322 -0.017990313 -0.1114241 -0.046554998
-0.04515113 -1.130706 -0.0026900098 -0.19132355 -0.018071534 -0.051793087 0.033545874 0.047351725
-0.11079936 -0.035180755 -0.09399977 -0.24259369 -0.019596498 0.04410419 0.04001933 0.03913609
-0.45089728 -0.016218796 0.060666367 -0.44396996 0.007326886 -0.09117565 0.0069026053 -0.34190166
-0.49615058 -0.3952966 -0.87280446 -0.036508232 -0.62881666 0.042572588 -0.8699186 -0.29896143
0.0626162 0.016808085 -0.61398804 -0.046891868 -0.5581115 0.02642139 -0.041887045 0.024575215
0.040198877 -0.0517831 0.023852432 -0.46766362 0.024505131 -0.6972433 -0.45511982 -0.45142892
0.008809045 -0.056145996 -0.013599671 -0.014923878 -0.061585255 0.05504669 0.02534468 -0.019745901
-1.0154103 0.061949823 0.0458078 0.02862591 -0.026128365 -0.0080920905 -0.19369622 -0.020629406
-0.27247426 0.022487732 -0.49585402 -0.53526473 -0.0080274595 -0.6590096 0.055252817 -0.035465084
0.03861957 -0.02805768 0.048184153 -0.0784326 -0.0075397408 -0.11289387 -0.27243328 0.062375102
-0.05662651 -0.045192823 -0.9030077 -0.4762014 -0.46382365 -0.043843187 0.41451615 -0.038483717
-0.62238324 -0.55494535 0.032616563 -0.019696254 0.045650713 0.0050933235 0.03183963 0.04895293
-0.16184035 -0.68557876 0.016568832 0.013332647 0.027847886 0.020469524 -0.90404993 -0.14981478
0.03310536 -0.086003736 0.025027372 0.022731699 -0.09120235 -0.04969021 -0.078044035 0.041402023
0.0012660153 0.005230233 -0.49812567 -1.4498732 -0.0123260915 0.0020784442 -0.7002486 -0.27505058
0.05449979 0.00010210945 -0.40971783 -0.056225367 0.43323222 -0.5039094 -1.6180596 -0.021400362
-0.08588693 -0.35282397 -0.09303281 -0.610098 -0.2545728 -0.013891242 -0.03221946 -0.035570595
-0.00047551095 0.021596713 -0.09662746 0.4092046 0.038273267 -0.66745585 -0.91158825 0.09010773
0.04173701 -0.04668946 0.03137006 0.026250102 -0.050659508 -0.35199937 -0.023797564 0.011405327
-0.35565606 -0.28028214 -0.021135896 -0.02729375 -0.41514012 0.04166848 -0.0108387545 -0.54299974
00000000: 92cb 2f3d 577b 283d 1009 67bf 7ec3 67be
00000010: e45d 3cbf e0f5 8c3c 2ae5 acbc 007c 8f3b
00000020: 0b67 8bbf badc 7a3d 6012 493f 5ea3 81bf
00000030: 6689 103d 2ccc d63c 6de0 c13b 00d9 cabc
00000040: a44c 6cbd 795e 6ebb 4dd5 5f3d 524d 60be
00000050: c0d6 afbc 639d 54bf 093e 02bf 00a0 22be
00000060: 4bb7 3b3d 30a9 883b d6ea 06bf 8018 933a
00000070: 6987 28bd fcbb b9be c146 513d 21a9 df3d
00000080: a83f 74bc 4c62 86be ea17 4dbd 3026 dd3d
00000090: 5196 8bbf 0faa f73c c795 093e 008f c239
000000a0: c6a7 49bf cbf2 34be 342f b33b 7392 563c
000000b0: 38a0 37bd e856 e2bc 1a29 5abd 055a 2dbe
000000c0: e68b 8c3d 9fe3 99be 0987 11bf 3d5c 38be
000000d0: d849 a1be f698 613d 5d42 95bc def8 193d
000000e0: 428e 2fbd 166d 3b3d f326 293e a78c 41bf
000000f0: f808 5e3d 269b c53e 7a4a 29bd a815 5dbc
00000100: d671 c7be 290c 39be c60b 18bf 1026 d7bd
00000110: 2768 65be 3172 8cbb c46c 03bd 3042 2fbd
00000120: 8914 09bd afd6 89be d72d 11bc 7bea 22bd
00000130: 84da 863c 97b0 9bbd ff9c 93bc feee 0e3f
00000140: 1226 73be b16e 9e3e 216f 3f3e dd79 213f
00000150: e3fb 0ebd 0550 e7be 87b9 6d3d fb15 47bd
00000160: 6603 153d eda4 a1be f4fe 39bd e75a 203e
00000170: a974 72bc 6c60 93bc 5232 e4bd 74b0 3ebd
00000180: 64f0 38bd f9ba 90bf e04a 30bb 52ea 43be
00000190: c10a 94bc fd24 54bd 6667 093d e2f3 413d
000001a0: c6ea e2bd b219 10bd f482 c0bd 7b6a 78be
000001b0: d688 a0bc 98a6 343d 4feb 233d 2a4d 203d
000001c0: 02dc e6be 48dd 84bc 4c7d 783d 0850 e3be
000001d0: 6016 f03b 4dba babd 402f e23b bc0d afbe
000001e0: 7307 febe 5164 cabe 1d70 5fbf a889 15bd
000001f0: 21fa 20bf 9860 2e3d fcb2 5ebf 7911 99be
00000200: ec3c 803d 1cb1 893c 522e 1dbf b011 40bd
00000210: 65e0 0ebf ac71 d83c c091 2bbd f651 c93c
00000220: 94a7 243d 841a 54bd 2d66 c33c 9b71 efbe
00000230: fcbe c83c 897e 32bf 7705 e9be b121 e7be
00000240: d053 103c 58f9 65bd 28d1 5ebc 4883 74bc
00000250: d240 7cbd a378 613d a59f cf3c 28c2 a1bc
00000260: f7f8 81bf 19bf 7d3d f6a0 3b3d e280 ea3c
00000270: 270b d6bc b094 04bc 4d58 46be 00ff a8bc
00000280: bf81 8bbe 3138 b83c 94e0 fdbe 1c07 09bf
00000290: 9b85 03bc dab4 28bf c750 623d d643 11bd
000002a0: 8e2f 1e3d 38d9 e5bc bf5c 453d 45a1 a0bd
000002b0: ee0f f7bb e734 e7bd 607c 8bbe 097d 7f3d
000002c0: 33f1 67bd 1c1c 39bd 832b 67bf abd0 f3be
000002d0: 4b7a edbe ea94 33bd 763b d43e 1aa1 1dbd
000002e0: 8254 1fbf e610 0ebf f298 053d 0a5a a1bc
000002f0: 3efc 3a3d e5e5 a63b 466a 023d de82 483d
00000300: 7ab9 25be 1782 2fbf 5cbb 873c 2d71 5a3c
00000310: 4021 e43c b4af a73c d16f 67bf 0c69 19be
00000320: 7c99 073d ba22 b0bd 3406 cd3c d437 ba3c
00000330: 4cc8 babd f687 4bbd 8dd5 9fbd 2b95 293d
00000340: 6df0 a53a 6062 ab3b 540a ffbe 7295 b9bf
00000350: 60f3 49bc 8236 083b 7e43 33bf 6ed3 8cbe
00000360: 2c3b 5f3d 9823 d638 89c6 d1be 924c 66bd
00000370: 9dd0 dd3e 3500 01bf 941c cfbf d04f afbc
00000380: 7de5 afbd 58a5 b4be fc87 bebd 622f 1cbf
00000390: 5e57 82be 1898 63bc 8df8 03bd 79b2 11bd
000003a0: 004e f9b9 97eb b03c 9ee4 c5bd 4483 d13e
000003b0: 6ec4 1c3d 63de 2abf d95d 69bf 678a b83d
000003c0: 6df4 2a3d 723d 3fbd e47d 003d 740a d73c
000003d0: 5880 4fbd 4339 b4be 1cf3 c2bc 69dd 3a3c
000003e0: 8d18 b6be 2481 8fbe 3025 adbc 2497 dfbc
000003f0: 3f8d d4be 91ac 2a3d 0895 31bc 0802 0bbf

arch.3.bias f4 [128]
-0.05242188 0.055462137 0.052282084 0.05123982 -0.04487145 0.03947258 0.015568584 -0.015501846
0.025926093 0.027672173 0.058697693 -0.0028092056 0.054759104 -0.008025539 -0.026877798 -0.0001844859
-0.010735825 -0.025258226 0.02743895 -0.009445669 -0.045310527 -0.009906097 0.04156119 -0.037806835
-0.029617127 -0.034193985 0.025917945 -0.0075581083 0.058840696 -0.010797421 -0.0026527317 0.037529837
0.001192523 0.03864716 0.049738236 -0.006788543 0.013270367 0.042427685 0.00011776528 -0.040526316
0.054803565 0.0032506397 0.019473694 -0.048287213 -0.03256817 -0.013822798 0.034114458 0.013509854
0.030584004 0.042340428 -0.040054347 -0.017866835 0.025788773 -0.03675405 -0.0013195528 -0.054950885
-0.02192399 0.046705 0.062476363 0.02202845 0.033003528 0.0022651674 -0.0013900554 0.019246662
-0.041549586 -0.04558155 0.06008054 0.0007223354 0.040815555 -0.03383677 -0.015899433 -0.049465083
-0.024402188 0.029203001 -0.053240754 0.019047001 -0.032936566 0.03083696 -0.04532595 -0.015396842
-0.038271733 -0.030504657 -0.0064783497 0.028936684 0.056212965 0.045152567 -0.026237324 0.051941067
-0.050301515 0.046944275 -0.004340513 0.019142255 -0.019559845 0.028861223 -0.014218077 -0.04426098
-0.04696362 -0.039844107 -0.03154421 -0.027446205 -0.051532082 0.024267877 -0.028778465 0.050127365
-0.05417255 0.005320237 -0.041386355 -0.029923335 0.009189373 0.026857087 0.006222461 -0.029516036
-0.03564725 0.042637434 0.055883307 -0.04433798 -0.044182338 -0.056451395 -0.011122195 -0.028663393
0.032890934 -0.047744945 -0.017572125 -0.029257372 0.0024087236 0.04071512 -0.0393174 0.041878045
00000000: 53b8 56bd 442c 633d bd25 563d d8e0 513d
00000010: 20cb 37bd 00ae 213d 6013 7f3c 74fb 7dbc
00000020: f562 d43c c1b0 e23c fe6c 703d a61a 38bb
00000030: 154b 603d 8d7d 03bc d42e dcbc 8f72 41b9
00000040: 50e5 2fbc 57ea cebc a6c7 e03c 02c2 1abc
00000050: 8897 39bd 2f4d 22bc 113c 2a3d 57db 1abd
00000060: 9e9f f2bc fe0e 0cbd df51 d43c 02aa f7bb
00000070: f102 713d abe7 30bc 74d9 2dbb e3b8 193d
00000080: 6f4e 9c3a 7c4c 1e3d 52ba 4b3d 6d72 debb
00000090: f46b 593c a7c8 2d3d c1f8 f638 ecfe 25bd
000000a0: b479 603d af08 553b 4c87 9f3c d0c8 45bd
000000b0: 3466 05bd 0479 62bc 9abb 0b3d 6f58 5d3c
000000c0: 4e8b fa3c 286d 2d3d 0710 24bd 785d 92bc
000000d0: fa42 d33c 6a8b 16bd d8f4 acba 2e14 61bd
000000e0: f199 b3bc be4d 3f3d 37e7 7f3d 0275 b43c
000000f0: b52e 073d 3473 143b 8532 b6ba 2dab 9d3c
00000100: e62f 2abd b8b3 3abd 0317 763d 1c5b 3d3a
00000110: 362e 273d 6d98 0abd 873f 82bc e69b 4abd
00000120: 19e7 c7bc 223b ef3c fa12 5abd 7508 9c3c
00000130: 7ee8 06bd cb9d fc3c b4a7 39bd 0943 7cbc
00000140: d2c2 1cbd e7e4 f9bc 5648 d4bb a00c ed3c
00000150: 913f 663d e6f1 383d a8ef d6bc 28c0 543d
00000160: f608 4ebd a448 403d dd3a 8ebb 38d0 9c3c
00000170: f83b a0bc 5f6e ec3c f0f2 68bc 004b 35bd
00000180: ed5c 40bd 9333 23bd 8034 01bd ddd6 e0bc
00000190: 4e13 53bd 6dcd c63c d1c0 ebbc 5a52 4d3d
000001a0: 09e4 5dbd 6255 ae3b bd84 29bd c821 f5bc
000001b0: 068f 163c 6503 dc3c c9e5 cb3b 9dcb f1bc
000001c0: da02 12bd 97a4 2e3d e5e5 643d be9b 35bd
000001d0: 8af8 34bd 9439 67bd de39 36bc 7ecf eabc
000001e0: a5b8 063d 3490 43bd 6bf3 8fbc 28ad efbc
000001f0: addb 1d3b e6c4 263d 480b 21bd 5088 2b3d

arch.4.weight f4 [128]
0.7913855 2.013109 1.65943 1.6906798 2.0170276 2.053623 1.5801123 1.6490719
1.3607883 1.7700558 1.246766 1.7272031 1.990215 0.9566574 1.6466762 0.39168197
1.9373405 1.5510716 2.029579 2.1528842 1.377042 2.706895 1.7780975 0.7086532
0.97956306 1.10253 1.3604786 1.0455682 0.85643536 1.2380226 1.8122809 1.5812262
1.0441363 1.3151598 1.4682094 1.097529 1.901141 1.3300741 1.1547968 0.17234014
1.7076628 1.0232296 1.2501599 2.0064454 1.8655689 2.2755194 0.96623284 2.717732
1.1619865 1.9634845 2.201546 1.5134655 2.0553925 1.2290404 1.8384683 1.9047978
2.3221838 2.4244416 1.6957655 1.8995064 2.349929 1.8546067 1.6968049 1.9710191
1.0428247 1.8030927 1.699388 2.4201906 1.982119 1.1757437 2.0115025 1.9162267
1.3307154 1.8176595 2.3064127 1.137254 2.3813632 1.2409754 1.9643356 2.0476158
1.5034064 1.9884099 2.2300851 1.6682143 1.5640419 1.9480467 1.8444257 2.3486557
1.5933173 1.653211 2.257552 1.7024711 1.5310931 1.6653682 1.5208666 2.2724063
2.5627785 1.9352247 1.273964 0.7197378 2.2385697 1.7736906 1.4252138 1.5240929
1.8837681 1.6882092 2.1490073 2.5688088 2.403151 1.7849585 2.1443658 1.5249172
2.0862422 1.3515666 1.7778304 1.3132862 1.4824443 2.3015091 2.4692047 2.591672
1.6657517 1.7101302 1.9995315 1.1774843 1.2889671 1.8157238 1.998658 2.1146429
00000000: 3d98 4a3f c7d6 0040 3468 d43f 3268 d83f
00000010: fb16 0140 8f6e 0340 1f41 ca3f ca14 d33f
00000020: 502e ae3f 3091 e23f 0796 9f3f fe14 dd3f
00000030: 5dbf fe3f 80e7 743f 49c6 d23f 8a8a c83e
00000040: c6fa f73f 8489 c63f 9fe4 0140 dbc8 0940
00000050: ea42 b03f c53d 2d40 b398 e33f 4c6a 353f
00000060: a5c4 7a3f b41f 8d3f 2a24 ae3f 2ed5 853f
00000070: 593f 5b3f 8677 9e3f d2f8 e73f 9f65 ca3f
00000080: 42a6 853f 2857 a83f 49ee bb3f d57b 8c3f
00000090: 9758 f33f de3f aa3f 62d0 933f ef79 303e
000000a0: b294 da3f 30f9 823f 3d05 a03f 9a69 0040
000000b0: f6ca ee3f 1ca2 1140 095b 773f 52ef 2d40
000000c0: f9bb 943f 7653 fb3f 21e6 0c40 3db9 c13f
000000d0: 8d8b 0340 3251 9d3f ee52 eb3f 6ad0 f33f
000000e0: a99e 1440 0d2a 1b40 d80e d93f 0723 f33f
000000f0: 3d65 1640 c163 ed3f e730 d93f 5b4a fc3f
00000100: 487b 853f becb e63f 8c85 d93f 67e4 1a40
00000110: 13b6 fd3f c57e 963f 75bc 0040 eb46 f53f
00000120: e254 aa3f 11a9 e83f 449c 1340 8a91 913f
00000130: 4168 1840 48d8 9e3f 596f fb3f 230c 0340
00000140: 9f6f c03f 3784 fe3f b7b9 0e40 0c88 d53f
00000150: 8632 c83f 9859 f93f 2416 ec3f 6050 1640
00000160: d2f1 cb3f 6b9c d33f bb7b 1040 93ea d93f
00000170: dcfa c33f c92a d53f c2ab c23f 1b6f 1140
00000180: 9004 2440 71b5 f73f 4111 a33f bd40 383f
00000190: ba44 0f40 4b08 e33f 686d b63f 7a15 c33f
000001a0: 501f f13f 3d17 d83f 5689 0940 5d67 2440
000001b0: 3acd 1940 8579 e43f 4a3d 0940 7d30 c33f
000001c0: fe84 0540 2200 ad3f f28f e33f c319 a83f
000001d0: bcc0 bd3f ed4b 1340 7307 1e40 f4dd 2540
000001e0: 5a37 d53f 8ce5 da3f a6f0 ff3f ceb7 963f
000001f0: e0fc a43f a369 e83f 06d4 ff3f 4f56 0740

arch.4.bias f4 [128]
0.098219894 0.34057942 -0.09741485 -0.02466513 0.06526177 -0.30213657 0.0010090853 0.049076915
0.021071212 0.352114 -0.108729705 -0.40006578 -0.09702919 -0.5622753 0.36838886 0.12992975
0.30693793 -0.18368155 -0.070842296 -0.67890054 -0.023056457 0.1648147 0.30869415 0.23453686
-0.4205755 0.0868461 0.17499565 -0.09418004 0.42447084 -0.21072465 -0.20370452 -0.19666214
-0.0009445195 -0.11348815 0.059551995 -0.059183348 0.12179483 -0.3253549 -0.026977258 0.2699124
0.07798623 0.041038685 -0.005613223 -0.12502593 0.08876649 0.031615037 0.022167169 0.33801457
-0.052017406 -0.023572873 -0.10651925 0.36546114 -0.62277824 -0.16771883 0.30206552 0.10968937
0.020962585 0.29195294 0.0038928376 -0.30380982 -0.1872344 -0.08590094 -0.02875022 -0.1542907
0.021374514 0.3768912 0.012513656 -0.27096164 0.050576884 0.2724179 0.059235446 -0.05812099
-0.045165073 0.28502274 0.10837954 -0.122941315 -0.061650924 0.2859398 -0.30216774 0.16834542
0.18532462 0.08185147 -0.07585336 0.19232056 -0.214777 0.13212337 -0.015919391 -0.17143814
-0.16923395 0.07157745 -0.29973787 -0.34192783 0.10413053 0.16349272 0.04070972 0.11589555
-0.21314682 0.19102484 0.09596336 -0.025411755 0.4186725 0.43245727 -0.21295698 -0.062051993
-0.26246613 -0.1467807 0.050772157 0.4206762 0.010930149 -0.5470922 -0.31213248 -0.23224702
-0.3156579 0.22502539 0.39182425 0.31617254 -0.28388605 -0.10994886 -0.19946702 0.13171297
0.21670705 -0.08425387 0.17562965 -0.06927965 0.35298938 0.1465847 0.08664175 -0.060074773
00000000: 8327 c93d 6d60 ae3e 7081 c7bd 870e cabc
00000010: f6a7 853d a5b1 9abe 4943 843a e004 493d
00000020: 899d ac3c 4948 b43e aead debd 6cd5 ccbe
00000030: 3db7 c6bd 46f1 0fbf 779d bc3e 4e0c 053e
00000040: f826 9d3e 0417 3cbe c415 91bd 6dcc 2dbf
00000050: e5e0 bcbc 2fc5 283e 290d 9e3e 6e2a 703e
00000060: ac55 d7be 5edc b13d 0f32 333e 77e1 c0bd
00000070: 3e54 d93e 34c8 57be eb97 50be cd61 49be
00000080: a199 77ba 7a6c e8bd cbec 733d 3d6a 72bd
00000090: 916f f93d eb94 a6be 69ff dcbc f531 8a3e
000000a0: 3fb7 9f3d 2e18 283d 21ef b7bb cc06 00be
000000b0: 35cb b53d c57e 013d ec97 b53c 3f10 ad3e
000000c0: 3410 55bd e61b c1bc c426 dabd b91d bb3e
000000d0: 656e 1fbf 7cbe 2bbe 55a8 9a3e d2a4 e03d
000000e0: bab9 ab3c db7a 953e fa1e 7f3b f68c 9bbe
000000f0: 60ba 3fbe d5ec afbd 9585 ebbc 62fe 1dbe
00000100: 9b19 af3c e2f7 c03e 1406 4d3c 7cbb 8abe
00000110: b529 4f3d 5c7a 8b3e dea0 723d 4610 6ebd
00000120: 03ff 38bd 80ee 913e 18f6 dd3d a8c8 fbbd
00000130: ae85 7cbd b466 923e bbb5 9abe be62 2c3e
00000140: bdc5 3d3e bea1 a73d 0259 9bbd aeef 443e
00000150: 80ee 5bbe 594b 073e 6269 82bc 7b8d 2fbe
00000160: aa4b 2dbe 3397 923d 3e77 99be 2a11 afbe
00000170: 6342 d53d a36a 273e 3cbf 263d a55a ed3d
00000180: 2943 5abe 049c 433e 7088 c43d 502c d0bc
00000190: 3e5c d63e 0a6b dd3e 6511 5abe 3b2a 7ebd
000001a0: f661 86be ae4d 16be 77f6 4f3d df62 d73e
000001b0: 5e14 333c 3c0e 0cbf d4cf 9fbe 2ad2 6dbe
000001c0: ea9d a1be 0e6d 663e 309d c83e 5ee1 a13e
000001d0: 8359 91be de2c e1bd 1541 4cbe c4df 063e
000001e0: 74e8 5d3e 4b8d acbd 42d8 333e 7de2 8dbd
000001f0: 06bb b43e 4d1a 163e 3b71 b13d f710 76bd

arch.4.running_mean f4 [128]
-5.9499935e+06 6.0550615e+06 -6.1972065e+06 -8.958537e+06 6.3193505e+06 8.3831425e+06 -8.557205e+06 6.451358e+06
-7.5817765e+06 -6.0639335e+06 -5.3647625e+06 -6.99044e+06 -7.5376235e+06 -6.1557195e+06 7.204807e+06 4.143055e+06
7.551383e+06 -5.9910575e+06 -7.9991015e+06 -8.589925e+06 -7.22008e+06 -8.541364e+06 7.4999745e+06 -5.648615e+06
-6.907188e+06 5.1007e+06 -6.0036785e+06 -6.216833e+06 -7.0969345e+06 -6.227035e+06 7.1682725e+06 -5.6085145e+06
5.5998205e+06 6.761202e+06 -5.9357785e+06 6.0815495e+06 -7.18161e+06 -7.107951e+06 -4.7994675e+06 -3.742931e+06
-6.827279e+06 -6.5947285e+06 6.179235e+06 -7.418616e+06 6.4067385e+06 -7.170955e+06 -6.2551175e+06 8.447283e+06
5.241494e+06 -6.839429e+06 -7.230701e+06 -7.3823765e+06 -8.707791e+06 5.793461e+06 7.067516e+06 -7.3427275e+06
-7.93123e+06 8.3802795e+06 -6.99604e+06 -7.217897e+06 -7.9753195e+06 -6.9857045e+06 6.3781155e+06 8.103977e+06
-7.0651685e+06 6.3114675e+06 -6.6245235e+06 7.6912925e+06 6.951117e+06 6.3910615e+06 7.3164335e+06 -7.606249e+06
-6.6088375e+06 -8.159277e+06 -7.694498e+06 5.5643045e+06 -7.918312e+06 7.5809695e+06 6.856004e+06 -7.1303495e+06
6.6116215e+06 7.9657795e+06 7.317521e+06 7.513481e+06 -5.937621e+06 7.3857765e+06 -4.8236405e+06 -7.063372e+06
7.2089815e+06 -6.509351e+06 7.394162e+06 -7.7275675e+06 8.330313e+06 -6.4338915e+06 6.224955e+06 6.992394e+06
-8.498686e+06 7.7142115e+06 5.5281115e+06 -5.897993e+06 7.9909805e+06 -7.1719985e+06 -6.7965335e+06 5.344225e+06
-7.9037315e+06 -7.359231e+06 6.9937675e+06 9.287699e+06 -7.390113e+06 -8.1043785e+06 7.0701055e+06 -7.874286e+06
6.391733e+06 6.7718785e+06 -6.775022e+06 -7.3123145e+06 -8.239021e+06 -8.2144075e+06 -6.1276285e+06 -6.5181395e+06
-7.528673e+06 -7.235131e+06 7.4458755e+06 -5.3080365e+06 6.071144e+06 -6.7731465e+06 -8.0141935e+06 -5.497991e+06
00000000: 5394 b5ca 2bc9 b84a ad1f bdca 49b2 08cb
00000010: edd9 c04a 4dd5 ff4a 9592 02cb 3ce1 c44a
00000020: a160 e7ca 7b0e b9ca 35b8 a3ca d054 d5ca
00000030: af07 e6ca 8fdb bbca 8edf db4a 3cdf 7c4a
00000040: 2e73 e64a 23d5 b6ca fb1c f4ca 6512 03cb
00000050: e056 dcca b454 02cb 8de1 e44a ce61 acca
00000060: 68ca d2ca 38a9 9b4a bd37 b7ca 02b9 bdca
00000070: cd94 d8ca b608 beca 21c2 da4a 8528 abca
00000080: 99e4 aa4a e455 ce4a 4525 b5ca 1b98 b94a
00000090: 542a dbca deea d8ca d777 92ca 4c73 64ca
000000a0: 1e5a d0ca 5141 c9ca 4693 bc4a f065 e2ca
000000b0: a584 c34a 16d7 daca 1be4 beca 33e5 004b
000000c0: 2cf5 9f4a 0ab9 d0ca daa9 dcca d14a e1ca
000000d0: cfde 04cb 6acd b04a f8ae d74a 0f15 e0ca
000000e0: bc0a f2ca efbe ff4a 9080 d5ca d245 dcca
000000f0: 2f63 f3ca d12f d5ca 07a5 c24a 5250 f74a
00000100: a19c d7ca 579c c04a 172a caca 39b8 ea4a
00000110: 9a21 d44a 2b0a c34a a347 df4a d21f e8ca
00000120: 8baf c9ca 5a00 f9ca 44d1 eaca 21cf a94a
00000130: d0a5 f1ca 535a e74a 883a d14a db99 d9ca
00000140: 4bc5 c94a a718 f34a 2250 df4a 124b e54a
00000150: aa33 b5ca 6165 e14a b134 93ca 988e d7ca
00000160: 2b00 dc4a 4ea6 c6ca e4a6 e14a 9fd3 ebca
00000170: 9238 fe4a c758 c4ca 76f8 bd4a 1464 d54a
00000180: fead 01cb 476b eb4a 5fb4 a84a 12fe b3ca
00000190: 89dd f34a 3ddf daca eb69 cfca c217 a34a
000001a0: e733 f1ca fe95 e0ca cf6e d54a 13b8 0d4b
000001b0: 4287 e1ca 7553 f7ca 33c3 d74a dc4d f0ca
000001c0: 6a0f c34a 4da9 ce4a dcc1 ceca 7527 dfca
000001d0: 5a6f fbca 0faf faca 1900 bbca f7ea c6ca
000001e0: c2c1 e5ca 76cc dcca e73a e34a 09fd a1ca
000001f0: d046 b94a 35b3 ceca e392 f4ca 0ec9 a7ca

arch.4.running_var f4 [128]
1.4140934e+13 1.430449e+13 1.5272219e+13 3.0847919e+13 1.5586605e+13 2.7973304e+13 2.8416422e+13 1.6141552e+13
2.2108982e+13 1.4242925e+13 1.1026053e+13 1.8816577e+13 2.187972e+13 1.5539525e+13 1.995012e+13 6.7767134e+12
2.1780362e+13 1.3929164e+13 2.4490747e+13 2.881172e+13 2.0208385e+13 2.8442469e+13 2.1555002e+13 1.2584043e+13
1.8694315e+13 1.0270957e+13 1.3955161e+13 1.5165834e+13 1.9905338e+13 1.481083e+13 2.0014573e+13 1.2126544e+13
1.2497821e+13 1.7545918e+13 1.3638158e+13 1.4919649e+13 2.0002567e+13 1.9527094e+13 9.259294e+12 5.593429e+12
1.8433452e+13 1.6900372e+13 1.4596908e+13 2.1487396e+13 1.5850258e+13 2.0405824e+13 1.5626394e+13 2.7778515e+13
1.0824484e+13 1.8187442e+13 2.0073746e+13 2.1255162e+13 2.9333354e+13 1.2956318e+13 1.9121777e+13 2.057049e+13
2.4461953e+13 2.7140444e+13 1.9024874e+13 2.0209025e+13 2.4482113e+13 1.8944876e+13 1.5486972e+13 2.5165461e+13
1.913247e+13 1.526003e+13 1.689617e+13 2.2805026e+13 1.8437028e+13 1.5910999e+13 2.0667949e+13 2.2572809e+13
1.6732382e+13 2.6582354e+13 2.327351e+13 1.1960868e+13 2.4278878e+13 2.2047434e+13 1.832701e+13 1.966442e+13
1.6705509e+13 2.4484675e+13 2.0431306e+13 2.1635352e+13 1.3798073e+13 2.1122263e+13 9.244113e+12 1.9395626e+13
2.0430543e+13 1.6348916e+13 2.1231848e+13 2.2942008e+13 2.6645098e+13 1.582989e+13 1.5082369e+13 1.8831657e+13
2.7418587e+13 2.274097e+13 1.2342946e+13 1.3514585e+13 2.4701856e+13 2.0188557e+13 1.805338e+13 1.0970989e+13
2.3790172e+13 2.1104614e+13 1.8920669e+13 3.2975803e+13 2.1419044e+13 2.5447845e+13 1.9846601e+13 2.3581992e+13
1.5631489e+13 1.7638344e+13 1.7795553e+13 2.0585304e+13 2.636388e+13 2.6080967e+13 1.4363032e+13 1.6580179e+13
2.1989947e+13 2.0418363e+13 2.1705745e+13 1.149105e+13 1.440367e+13 1.7804936e+13 2.4651443e+13 1.1784752e+13
00000000: 16c7 4d55 6128 5055 733d 5e55 ba72 e055
00000010: a1d0 6255 5788 cb55 b6c1 ce55 f8e3 6a55
00000020: 30dd a055 0843 4f55 4073 2055 9be8 8855
00000030: 2832 9f55 3e21 6255 ff27 9155 733a c554
00000040: 1679 9e55 2eb2 4a55 9231 b255 03a2 d155
00000050: 0d09 9355 3af2 ce55 52d5 9c55 371f 3755
00000060: e004 8855 4c76 1555 0713 4b55 22b1 5c55
00000070: 95d4 9055 a486 5755 0ca0 9155 e676 3055
00000080: 03de 3555 a353 7f55 1976 4655 061c 5955
00000090: af89 9155 0c14 8e55 8fbd 0655 4bca a254
000000a0: fb1e 8655 cbee 7555 b869 5455 6557 9c55
000000b0: d0a6 6655 cf78 9455 db64 6355 841d ca55
000000c0: 5884 1d55 c054 8455 440e 9255 d3a6 9a55
000000d0: a16d d555 0c8a 3c55 1621 8b55 86ab 9555
000000e0: f0fb b155 0479 c555 976c 8a55 3e0a 9355
000000f0: 7d21 b255 95d7 8955 775d 6155 531a b755
00000100: 0135 8b55 0b10 5e55 23df 7555 aced a555
00000110: a425 8655 1789 6755 0e61 9655 223d a455
00000120: fb7c 7355 7e69 c155 4a56 a955 b50d 2e55
00000130: efa6 b055 8c6a a055 b758 8555 d613 8f55
00000140: df18 7355 4326 b255 46a8 9455 fc6a 9d55
00000150: d4c9 4855 48af 9955 0185 0655 2b1f 8d55
00000160: daa6 9455 75e8 6d55 667b 9a55 d2ec a655
00000170: 5dde c155 f05a 6655 347a 5b55 b204 8955
00000180: 197f c755 5c76 a555 0f9d 3355 c1a9 4455
00000190: cbba b355 1ee4 9255 0a5b 8355 1ea6 1f55
000001a0: a618 ad55 688e 9955 7eaa 8955 38ee ef55
000001b0: 14d8 9b55 4e28 b955 2d67 9055 e294 ab55
000001c0: d677 6355 fa55 8055 cd7a 8155 1ec7 9555
000001d0: 8ed2 bf55 96c3 bd55 7702 5155 fb45 7155
000001e0: 78ff 9f55 2a90 9455 1aee 9d55 7f37 2755
000001f0: da99 5155 478c 8155 e45c b355 9f7d 2b55

arch.6.weight f4 [2, 128]
0.076797195 -0.7924143 0.12722218 0.22359216 -0.5086791 -0.5224446 0.31534374 -0.30337858
0.19517037 0.7651679 0.28665078 0.6385261 0.32650444 0.4379876 -0.3147583 -0.025008595
-0.7847756 0.37007913 0.4741127 0.71219414 0.25103477 0.83727103 -0.4436848 -0.02202181
0.4171976 -0.13816516 -0.029049452 0.05592005 -0.033672016 0.1784823 -0.3949174 0.1860296
-0.1878982 -0.16376135 0.20090277 -0.0358153 0.0046505607 0.47858799 0.38517636 -0.23616116
0.059419647 0.15616481 -0.04260546 0.37717122 -0.2221542 0.6336279 0.26525566 -0.63942784
0.15025887 0.28223443 0.58920676 0.40711224 1.0093068 -0.13043547 -0.7861384 0.27135533
0.6049719 -0.4977276 0.009175589 0.5594559 0.68323344 0.6545247 -0.4043455 -0.425499
0.2509956 -0.68144864 0.25483736 -0.77428186 -0.41352254 -0.10412903 -0.45634633 0.48230892
0.19645606 0.33950964 0.03824398 -0.31038153 0.94974834 -0.315501 -0.534281 0.23526616
-0.20607255 -0.37395453 -0.5905616 -0.1715159 0.44920665 -0.5538453 0.07227213 1.0468708
-0.15646753 0.22317295 -0.13510135 0.4212859 -0.17065324 0.13592325 -0.12948793 -0.48352805
0.88660777 -0.5643563 -0.07463889 0.07114542 -0.87159663 -0.01079285 0.26499864 -0.35857424
0.2869566 0.4550364 -0.55078924 -0.7568503 0.38176584 0.8880554 -0.3050198 0.320835
-0.50503933 -0.2170478 -0.13246448 0.3934824 0.4397846 0.6312682 0.65530986 0.23059584
0.04070445 0.21696115 -0.594066 -0.15961486 -0.47255945 0.0036274986 0.16580097 0.7991924
-0.12697414 0.35210714 -0.44685692 -0.3011605 0.45563775 0.48408782 -0.34954873 0.10896671
-0.1828211 -0.061042085 -0.16092995 -0.41368327 -0.44065392 0.016364668 0.5144671 0.07684142
0.0511606 -0.2353778 -0.48068896 -0.7230883 -0.09981941 -0.55273706 0.38073945 -0.15207893
-0.12518078 0.20288894 -0.39956096 -0.1497443 -0.47285154 -0.1889282 0.49682677 -0.39263314
0.11001054 0.29995117 -0.30032194 0.17547098 -0.652807 0.026197068 -0.08173692 -0.24880701
-0.59448516 -0.21212266 0.29066107 -0.48628396 0.6017522 -0.39500934 -0.042027142 0.8862046
0.22792262 -0.549464 -0.5534841 -0.515897 -0.3493601 0.2834362 0.22103289 -0.5805718
-0.5817159 0.74476755 -0.4215519 -0.3664195 -0.46956405 -0.29845005 0.18510492 0.43851566
0.0034646192 0.36118862 -0.4177353 0.5336008 0.553141 0.24718216 0.40417284 -0.18224837
-0.17123196 -0.58988935 -1.0273926 0.10669036 -0.26612496 0.16521646 0.4574534 -0.66046757
0.28932855 0.44858068 0.4270434 0.42101648 -0.27279484 0.3232675 -0.6615591 0.06710179
0.45609373 -0.3105228 0.9644859 -0.5201669 0.34404263 -0.48837128 0.36111853 0.787922
-0.5330732 0.2854864 0.3713596 -0.10658841 0.49490237 -0.7910889 -0.39010036 0.1651823
-0.24374165 0.035341572 0.45054343 0.8641584 -0.61242175 -0.06709754 0.750352 -0.16643281
0.8134193 0.2501064 -0.85396016 0.09924795 0.00097600877 -0.5208522 -0.7589431 -1.2121738
-0.6307773 -0.25991824 -0.079288326 -0.19314799 0.06583171 -0.6550025 -0.57476765 -0.25469515
00000000: d947 9d3d aadb 4abf 8846 023e 58f5 643e
00000010: cb38 02bf eebe 05bf bc74 a13e 7054 9bbe
00000020: beda 473e 0be2 433f e4c3 923e 7276 233f
00000030: 972b a73e e93f e03e 0028 a1be d3de ccbc
00000040: 0ee7 48bf 037b bd3e e6be f23e 5b52 363f
00000050: a187 803e 6557 563f a72a e3be 1567 b4bc
00000060: ec9a d53e 2b7b 0dbe 1ef9 edbc 6c0c 653d
00000070: abeb 09bd 10c4 363e 9d32 cabe 8b7e 3e3e
00000080: 6368 40be 0eb1 27be 75b9 4d3e 10b3 12bd
00000090: bb63 983b 7c09 f53e d635 c53e 3bd4 71be
000000a0: 0462 733d abe9 1f3e 1083 2ebd 961c c13e
000000b0: 647c 63be 7035 223f 97cf 873e 8bb1 23bf
000000c0: 76dd 193e 0881 903e 41d6 163f 0471 d03e
000000d0: f730 813f e090 05be 5e40 49bf 16ef 8a3e
000000e0: 70df 1a3f 27d6 febe 3655 163c 8038 0f3f
000000f0: 63e8 2e3f ee8e 273f 6006 cfbe 01db d9be
00000100: 7f82 803e 6b73 2ebf 0b7a 823e 5637 46bf
00000110: 3ab9 d3be 9a41 d5bd 3aa6 e9be 32f1 f63e
00000120: c72b 493e 35d4 ad3e b8a5 1c3d 54ea 9ebe
00000130: b522 733f 5989 a1be a4c6 08bf 9de9 703e
00000140: af04 53be f876 bfbe 0c2f 17bf dda1 2fbe
00000150: 6afe e53e cec8 0dbf 6903 943d ddff 853f
00000160: 0639 20be 7387 643e 0258 0abe c9b2 d73e
00000170: b9bf 2ebe 772f 0b3e 7c98 04be fd90 f7be
00000180: baf8 623f a879 10bf 46dc 98bd b1b4 913d
00000190: f520 5fbf 7ed4 30bc e7ad 873e 0b97 b7be
000001a0: faeb 923e 88fa e83e 8600 0dbf f1c0 41bf
000001b0: d076 c33e 9957 633f 8e2b 9cbe 7c44 a43e
000001c0: 424a 01bf c741 5ebe c5a4 07be 8676 c93e
000001d0: 722b e13e cb9a 213f 63c2 273f 5121 6c3e
000001e0: b6b9 263d 102b 5e3e b614 18bf 1472 23be
000001f0: 50f3 f1be 54bb 6d3b bbc7 293e e097 4c3f
00000200: 8205 02be 6347 b43e 6eca e4be b631 9abe
00000210: 5a49 e93e 5cda f73e 0df8 b2be f029 df3d
00000220: 7435 3bbe 4407 7abd d2ca 24be 4bce d3be
00000230: 649d e1be 320f 863c 1eb4 033f 095f 9d3d
00000240: c78d 513d e106 71be dd1c f6be 511c 39bf
00000250: 1e6e ccbd 2d80 0dbf 48f0 c23e 94ba 1bbe
00000260: 642f 00be 1ec2 4f3e 4193 ccbe 9256 19be
00000270: 9919 f2be 6576 41be 1460 fe3e 3607 c9be
00000280: 354d e13d 3393 993e ccc3 99be aaae 333e
00000290: 5c1e 27bf 3c9b d63c b065 a7bd 44c7 7ebe
000002a0: 2e30 18bf af36 59be 87d1 943e 36fa f8be
000002b0: 6f0c 1a3f aa3e cabe a724 2cbd 4ede 623f
000002c0: 8c64 693e aca9 0cbf 22b1 0dbf d311 04bf
000002d0: 54df b2be 8d1e 913e 7256 623e 5aa0 14bf
000002e0: 55eb 14bf 16a9 3e3f a7d5 d7be 569b bbbe
000002f0: b36a f0be 72ce 98be 258c 3d3e 2085 e03e
00000300: aa0e 633b b7ed b83e 67e1 d5be 109a 083f
00000310: a69a 0d3f 521d 7d3e beef ce3e 519f 3abe
00000320: 6e57 2fbe fd02 17bf 9a81 83bf 7a80 da3d
00000330: 8841 88be 812e 293e 5537 ea3e 6714 29bf
00000340: df22 943e 5eac e53e 6fa5 da3e 798f d73e
00000350: c4ab 8bbe 5183 a53e f05b 29bf aa6c 893d
00000360: 1e85 e93e d8fc 9ebe 8ce8 763f a829 05bf
00000370: 5b26 b03e cd0b fabe 87e4 b83e 42b5 493f
00000380: 7c77 08bf 462b 923e d822 be3e 064b dabd
00000390: d863 fd3e cd84 4abf 3cbb c7be 8d25 293e
000003a0: 6997 79be 53c2 103d a1ad e63e 7c39 5d3f
000003b0: acc7 1cbf 6f6a 89bd 1217 403f 5d6d 2abe
000003c0: 3f3c 503f f20d 803e 229d 5abf 8242 cb3d
000003d0: d7da 7f3a 9256 05bf 184a 42bf 8328 9bbf
000003e0: 9f7a 21bf 0114 85be eb61 a2bd 96c8 45be
000003f0: c7d2 863d 3eae 27bf f923 13bf 6767 82be

arch.6.bias f4 [2]
-0.5425864 -0.31208825
00000000: f1e6 0abf 08ca 9fbe
