model/ModelNN-CreditFraudDetection.pt (torch, 169493 bytes, 10 tensors)

arch.0.weight f4 [256, 29]
000000 d6 89 07 3f e7 6e 7f c1 cf 98 70 41 59 e0 78 c1
       0.52944696 -15.964576 15.037307 -15.554772
000010 eb 28 a1 41 05 a0 4f c1 ea a1 51 c1 77 e4 77 c1
       20.14498 -12.976567 -13.10203 -15.493278
000020 ed b6 ac 40 10 65 85 c1 dc b6 92 c1 41 37 a0 41
       5.39733 -16.674347 -18.339287 20.02698
000030 07 f6 a2 c1 92 32 b5 bf 4d a8 9e c1 ab 4f 53 40
       -20.37013 -1.4156058 -19.832178 3.3017375
000040 06 38 84 c1 0e 8b 61 c1 f5 e6 58 c1 c8 30 07 41
       -16.527355 -14.096449 -13.556386 8.4494095
000050 aa 7c d8 40 24 79 79 40 0b 70 f6 bf 5a d1 a2 be
       6.765218 3.8980188 -1.9252943 -0.31800348
000060 8a db 7d c0 15 8f d6 40 48 76 29 40 b4 96 e0 40
       -3.9665246 6.704966 2.6478443 7.0183964
000070 8d 03 76 40 39 44 06 be c0 dc 06 bd 00 88 65 3b
       3.8439667 -0.13111962 -0.032925367 0.003502369
000080 9c 1f 11 be 42 f9 18 be 28 7d ac bd 84 55 4b 3d
       -0.14172214 -0.14938834 -0.08422309 0.0496421
000090 f2 cc 15 be da 2f bd 3d e8 3d 91 bd 5a b3 ea 3d
       -0.14628962 0.092376426 -0.07091886 0.1145999
0000a0 b3 79 29 3e 78 22 99 3c 48 eb 78 bd 83 e0 01 be
       0.16550331 0.018693194 -0.060771257 -0.126833
0000b0 ba 9a fd 3d e3 73 30 be 58 27 ec 3c 62 47 96 bd
       0.123830274 -0.17231707 0.028827354 -0.07337834
0000c0 9f 8a 1d 3e 2b 1a 1b 3e 22 ac c8 3d 3a ef 95 bd
       0.15384911 0.15146701 0.09798457 -0.073210195
0000d0 5a 1e 38 be 34 c5 44 3d 2c 26 6a bd a0 2c 81 3b
       -0.17980328 0.04803963 -0.05716531 0.0039420873
0000e0 af cc b5 bd e5 be b2 bd b6 c9 3f 3f 2a 99 71 c1
       -0.08876931 -0.087278165 0.7491716 -15.099894
0000f0 68 ab 5e 41 04 17 6a c1 a6 68 95 41 78 98 39 c1
       13.916847 -14.630619 18.676098 -11.599724
000100 94 41 3a c1 91 42 22 c1 64 01 a0 40 0e ab 79 c1
       -11.64101 -10.141252 5.0001698 -15.604261
000110 b1 0e 87 c1 8c 36 94 41 7b 7c 97 c1 58 b9 b5 bf
       -16.882174 18.526634 -18.935781 -1.4197187
000120 38 2c 95 c1 94 8f 3f 40 97 f0 6d c1 2a da 57 c1
       -18.646591 2.9931383 -14.871238 -13.490763
000130 b4 41 56 c1 82 82 f3 40 dc c5 b2 40 7e be 35 40
       -13.391041 7.609681 5.5866528 2.8397517
000140 77 28 8a bf 4a 6b 85 be 3a 58 4e c0 d9 ad c1 40
       -1.0793599 -0.26058418 -3.224135 6.0524716
000150 55 ab 51 40 d1 45 9d 40 c3 12 57 40 ac d7 27 be
       3.2760823 4.9147725 3.3605201 -0.16390866
000160 52 82 e3 3d 3a 8c 8f bd 88 a8 b4 bc 9f 28 03 3e
       0.11108841 -0.07009168 -0.022053018 0.12808464
000170 10 29 2a 3c 49 c8 26 be 52 c8 a1 3d c9 59 3d 3e
       0.010385767 -0.1628734 0.07899536 0.18491282
000180 16 1b 9b 3d 37 bf 21 3e 60 4e 95 bc c7 81 c8 bd
       0.075735256 0.15795599 -0.018225849 -0.09790378
000190 a0 cf ac bc 7f 12 3c be 4b 9d 0e 3e c0 cd 40 3b
       -0.021095097 -0.1836643 0.1392719 0.0029419512
0001a0 3c 32 78 3d 2b bb 18 be fb 18 a8 bd e6 be b1 3d
       0.060594782 -0.14915149 -0.0820789 0.08678989
0001b0 61 cc 9c bd ed 35 21 3e d2 d7 ad 3d 99 9b dd bd
       -0.0765617 0.15743227 0.0848843 -0.108206935
0001c0 ad b2 31 3e 9e a9 b5 3d 01 79 38 be 72 cf 7c bd
       0.17353316 0.088702425 -0.1801491 -0.061721273
0001d0 29 67 0c 3f 96 ba 7e c1 24 93 60 41 c2 3d 78 c1
       0.5484491 -15.920553 14.035923 -15.515078
0001e0 c6 85 9b 41 0f f2 42 c1 be 54 48 c1 dd a7 2d c1
       19.44032 -12.184096 -12.520689 -10.853482
0001f0 3b 0a b2 40 53 b7 84 c1 62 df 92 c1 70 58 a0 41
       5.563749 -16.589514 -18.359074 20.043182
000200 15 58 9f c1 77 97 f0 bf 61 3f 9d c1 db fe 56 40
       -19.918009 -1.8796223 -19.655947 3.3593051
000210 14 fd 7c c1 2b f5 5c c1 5b dc 51 c1 d5 84 ed 40
       -15.811787 -13.809855 -13.116298 7.422465
000220 c3 36 c2 40 43 16 8a 40 a5 f1 d2 bf b4 47 2c bf
       6.069185 4.3152175 -1.6479994 -0.6729691
000230 2d 2b 8b c0 05 2e cb 40 ec 9e 52 40 2b 52 ad 40
       -4.3490205 6.3493676 3.2909498 5.4162803
000240 7d b6 80 40 96 19 0b 3f e9 61 89 c1 18 bd 76 41
       4.0222764 0.54335916 -17.172808 15.421165
000250 c7 90 88 c1 d7 bd a5 41 d3 69 51 c1 bf 0c 5a c1
       -17.070692 20.717695 -13.088336 -13.628112
000260 a7 fe 32 c1 70 03 ca 40 d9 94 90 c1 e5 03 9d c1
       -11.187171 6.3129196 -18.07268 -19.626902
000270 b3 cf aa 41 9b 04 b0 c1 07 b2 c7 bf d4 fa ac c1
       21.351416 -22.002249 -1.5601205 -21.622475
000280 28 46 8c 40 e0 24 88 c1 5b 18 78 c1 d5 e0 6c c1
       4.383564 -17.018005 -15.505946 -14.804891
000290 3d 87 12 41 ea d5 ca 40 0e be 90 40 cb cc f7 bf
       9.158017 6.3386126 4.5232 -1.9359373
0002a0 60 95 c7 be ee 8e 7c c0 ef b3 d4 40 76 8e 41 40
       -0.38981152 -3.9462237 6.6469646 3.0243201
0002b0 bf ce b6 40 96 4a 5e 40 9d c6 0f 3f dd 4a 75 c1
       5.7127376 3.4733024 0.56162435 -15.330777
0002c0 36 d9 58 41 a6 96 71 c1 0b 91 96 41 cb c3 3b c1
       13.55303 -15.099279 18.820822 -11.735301
0002d0 dd a8 40 c1 c8 5f 2c c1 0d 5c a1 40 58 a4 80 c1
       -12.041226 -10.773384 5.0424867 -16.080246
0002e0 46 30 8b c1 97 43 97 41 e0 de 9a c1 3f 95 f1 bf
       -17.398571 18.908003 -19.358826 -1.8873671
0002f0 fc f3 97 c1 f0 8f 52 40 3e 09 75 c1 4e af 53 c1
       -18.994133 3.2900352 -15.314756 -13.230299
000300 24 81 4a c1 c8 9f ef 40 2f d2 b4 40 5f c0 63 40
       -12.656528 7.4882545 5.650657 3.5586164
000310 9e 44 95 bf b2 12 c8 be 97 2e 85 c0 7c 67 c9 40
       -1.1661565 -0.39076763 -4.161937 6.2938824
000320 9a 3f 20 40 31 00 96 40 29 42 84 40 0a 9b 1e 3f
       2.503882 4.6875234 4.133076 0.6195532
000330 5c a0 80 c1 d8 6f 6c 41 8a 2d 78 c1 d4 bc 9e 41
       -16.0783 14.777306 -15.511118 19.842201
000340 31 cd 44 c1 ec 38 50 c1 8f 0b 5f c1 f3 46 b0 40
       -12.300096 -13.013897 -13.940322 5.508661
000350 7f df 86 c1 de 59 92 c1 b6 0c a0 41 81 ce a2 c1
       -16.859129 -18.29388 20.006207 -20.350832
000360 de 99 9d bf 98 09 a1 c1 22 06 30 40 0a 13 83 c1
       -1.2312582 -20.129684 2.7503743 -16.384296
000370 29 e8 63 c1 cc dd 52 c1 d3 40 fc 40 b1 d5 c9 40
       -14.24418 -13.17915 7.882913 6.3073354
000380 a1 ce 74 40 7d 90 bc bf 0d 13 7f bf 71 76 67 c0
       3.8251116 -1.4731594 -0.99638444 -3.616604
000390 db 10 d4 40 0a 45 28 40 d5 1e c6 40 ef 5f 67 40
       6.6270576 2.6292138 6.1912637 3.6152303
0003a0 92 b6 0a 3f d9 f9 6f c1 98 48 53 41 0d c7 60 c1
       0.5418483 -14.998498 13.205223 -14.048596
0003b0 8c ee 8e 41 2a 74 32 c1 d5 e1 38 c1 9f b8 11 c1
       17.866478 -11.15336 -11.555135 -9.1075735
0003c0 62 88 9a 40 83 c1 72 c1 d6 4e 87 c1 a3 b2 93 41
       4.8291483 -15.172244 -16.913494 18.462225
0003d0 fb 3e 95 c1 b1 b3 a6 bf c0 55 94 c1 1f 94 56 40
       -18.655752 -1.3023587 -18.54187 3.3527906
0003e0 2f 70 5f c1 e2 f5 4c c1 8b c1 48 c1 c6 a9 ed 40
       -13.964889 -12.81003 -12.547252 7.4269743
0003f0 3b ec 95 40 ed 7c 7b 40 8f 67 d0 bf eb 7e a5 bf
       4.6850867 3.9294999 -1.6281604 -1.2929357

arch.0.bias f4 [256]
000000 ca b8 4a c0 86 9b ea bd 0c d5 3a c0 76 12 96 bd
       -3.1675286 -0.11455445 -2.9192533 -0.0732774
000010 2c e1 4f c0 29 b2 55 c0 04 6c 38 c0 4f 26 39 c0
       -3.2481184 -3.338999 -2.8815928 -2.8929632
000020 c8 62 35 c0 b1 b0 64 c0 b7 f1 0e be 5c d9 43 c0
       -2.8341541 -3.5732844 -0.13959394 -3.0601416
000030 fe 94 8e 3d 51 e4 fe 3d a6 9c 04 be fd 00 3a 3e
       0.06962012 0.12445892 -0.12950382 0.1816444
000040 94 63 27 c0 78 10 13 be 20 b0 34 c0 9d 3f 04 3e
       -2.6154528 -0.14361751 -2.8232498 0.12914892
000050 ab 72 3b c0 a2 e2 40 c0 c5 f5 cb bc 2a 45 3c c0
       -2.9288738 -3.0138326 -0.024897465 -2.9417214
000060 90 59 17 be 58 87 30 c0 77 65 2f 3e 30 0b 8e 3c
       -0.14780259 -2.7582607 0.1712855 0.017339319
000070 75 a5 a4 bd 43 64 30 c0 e0 af f6 3d 8a 88 10 3b
       -0.08039371 -2.7561195 0.12045264 0.002205404
000080 1e d2 bf 3a 06 2f 4f c0 5f 28 a0 3c f8 eb 8e bc
       0.0014634763 -3.237245 0.0195505 -0.017446503
000090 bf 00 61 bd b8 da a8 bd a8 a2 8e 3c 3e 42 4b c0
       -0.054932352 -0.08244842 0.017411545 -3.175918
0000a0 0e 60 34 c0 52 32 45 c0 f8 5a 0d be 48 0f 6e 3d
       -2.8183627 -3.0811963 -0.13804233 0.058120042
0000b0 b5 69 2f c0 5c 2a 50 3d 14 1a 2d be 92 3e 3c c0
       -2.7408268 0.050821647 -0.1690448 -2.941319
0000c0 33 a4 3e c0 f8 59 3f c0 62 d9 3b be e0 b7 fb 3d
       -2.978772 -2.9898663 -0.18344644 0.12290931
0000d0 89 71 9b bd d0 6b 61 3c 45 88 a4 3d 43 fe 3c 3d
       -0.075900145 0.013758615 0.08033804 0.04614092
0000e0 00 28 ac 3a f1 dc bb bd 12 99 1e be 73 72 8b 3d
       0.001313448 -0.091730006 -0.15488079 0.06808939
0000f0 9a 1b 3b c0 7b 0e 43 c0 66 c2 74 3d 82 b0 1f be
       -2.9235597 -3.0477588 0.059755705 -0.15594676
000100 d0 23 8b bd b7 9a 3e c0 55 5d 72 bc 05 63 54 c0
       -0.0679394 -2.978193 -0.01479276 -3.3185437
000110 cf 48 3e c0 5a aa 9a 3d d1 ea 4e c0 6a de eb 3d
       -2.973194 0.07552023 -3.233082 0.115170315
000120 49 24 b1 3d 8f 9c 68 c0 06 2d 38 c0 40 65 67 3b
       0.08649499 -3.6345556 -2.877748 0.0035308152
000130 e1 d3 9a 3d 72 ff 04 3e e3 11 59 c0 8d 8c a8 bd
       0.07559944 0.1298807 -3.3917167 -0.08229933
000140 5a 65 c6 bd b9 13 bd bd 9b 4f d3 bd 4d 3a 4a c0
       -0.096873 -0.092322774 -0.10317918 -3.1598084
000150 b0 fe 17 3c 70 4f e6 3c df 74 3d c0 3e c0 e8 3d
       0.009277031 0.02811405 -2.9602582 0.11364792
000160 58 2f 44 bd d6 4e 59 c0 1e 37 9a bd d4 31 5a 3d
       -0.047896713 -3.3954368 -0.07530044 0.053270176
000170 ea 89 45 c0 8f 37 3e c0 fd 01 e2 bd 7e b9 ef 3d
       -3.0865426 -2.972141 -0.110355355 0.11705302
000180 a8 58 e0 3c 4e bc 3b c0 fe 81 36 c0 e1 c0 62 c0
       0.027386025 -2.9333682 -2.851684 -3.5430224
000190 0b e1 da bd 12 85 48 c0 58 81 bb bd 74 5b 3a 3d
       -0.10687455 -3.133122 -0.0915553 0.045497373
0001a0 bf 68 0d 3c 2d 57 43 c0 c1 6d 57 c0 75 bd b6 bc
       0.00863093 -3.0521958 -3.3660738 -0.022307137
0001b0 a4 65 1f bd e3 7e 3b c0 43 69 39 c0 82 c7 95 3d
       -0.03891529 -2.9296196 -2.8970497 0.07313444
0001c0 1c 80 f9 bc c0 e4 47 c0 da 79 2c c0 ee 8b b8 3d
       -0.030456595 -3.1233368 -2.6949372 0.090110645
0001d0 f5 ce 4a c0 94 0b 60 bd b2 00 83 3d 6e d4 50 c0
       -3.1688817 -0.05469854 0.06396617 -3.2629657
0001e0 9c ef 45 bd 22 4b bb 3d 90 ed 34 bd a0 06 bb bb
       -0.048324212 0.0914519 -0.04417187 -0.005707577
0001f0 54 97 46 c0 e1 1a 3e c0 f1 ff a2 be b5 92 b9 3d
       -3.1029863 -2.9703906 -0.31835893 0.09061185
000200 52 3c 2c be 1b 6d c2 bd 6c 6f 31 c0 b8 31 52 c0
       -0.16819885 -0.094934665 -2.7724257 -3.2842846
000210 d8 ee 32 bd c2 e7 2b 3e 9c eb 8b bd 60 90 66 bc
       -0.04368481 0.16787627 -0.06832048 -0.014072508
000220 8e 29 38 c0 90 f6 41 c0 9b 66 28 bd eb 9b 15 3e
       -2.8775363 -3.030674 -0.041113477 0.14610259
000230 c6 36 08 3e 63 5c 53 c0 da ec 2d be fc 00 5a c0
       0.13302144 -3.3025138 -0.16984883 -3.40631
000240 28 bf 6f 3d d9 24 8c bd ad df 52 c0 49 91 98 be
       0.05853191 -0.06842966 -3.294902 -0.29798344
000250 58 3d 4f c0 57 16 47 c0 7e c6 ee 3d 54 15 3b c0
       -3.2381191 -3.1107385 0.11658953 -2.9231768
000260 18 f0 0e bc 22 27 58 c0 b1 57 3a c0 91 dc 5c c0
       -0.008724235 -3.3773885 -2.9116023 -3.4509623
000270 6c 94 4b c0 8c 86 39 3d 60 47 b7 bd 98 f1 39 c0
       -3.180934 0.04529433 -0.089491606 -2.9053707
000280 62 0f 4c c0 13 25 4d c0 cb 84 3f c0 5d a4 26 3d
       -3.188439 -3.2053878 -2.99248 0.040684093
000290 7c 26 3e 3d 79 48 1e 3e 36 14 26 c0 31 75 23 be
       0.04642342 0.15457334 -2.5949836 -0.15962674
0002a0 9d d4 2c be 30 88 58 bd 1b b7 4b c0 01 d3 22 be
       -0.1687798 -0.052864254 -3.1830509 -0.15900804
0002b0 fd 51 36 c0 d8 6a 27 c0 76 b4 a9 3d 05 f2 36 c0
       -2.8487542 -2.6158962 0.08286373 -2.8585217
0002c0 6e 5e 65 c0 28 7e 37 c0 d8 2d 99 bc 50 38 ba 3d
       -3.5838885 -2.867075 -0.018698618 0.09092772
0002d0 49 c4 a3 bd c6 4e cf 3d 02 62 36 c0 7e da 3d c0
       -0.07996423 0.10122447 -2.849732 -2.9664607
0002e0 6b 5a 09 3e 3e 7e 21 bc e2 9e 21 be 54 4f 32 3d
       0.13413398 -0.009856759 -0.15783265 0.043532684
0002f0 69 da bb bd 2d 32 46 bd 68 01 4b c0 89 9b 21 be
       -0.09172518 -0.048387695 -3.1719608 -0.15781988
000300 68 b1 49 c0 c3 1a 30 3e ea 2e 4a c0 03 4b 41 c0
       -3.151453 0.17197709 -3.1591134 -3.0202034
000310 5b 9b 44 c0 91 1e 48 c0 e5 35 02 3d bf d8 4c c0
       -3.0719821 -3.1268656 0.03178968 -3.2007291
000320 70 2f 6b bc 01 72 c5 bd a5 13 40 c0 e4 75 46 c0
       -0.014354572 -0.09640885 -3.001199 -3.1009455
000330 30 66 7f 3c 63 66 2e c0 34 23 6b 3d e2 53 34 c0
       0.015588328 -2.7249992 0.05740662 -2.8176198
000340 7f 90 ee 3c 79 86 54 c0 cb ba f0 3d 5b e8 45 c0
       0.029121635 -3.3207076 0.11754378 -3.0923069
000350 70 8b 42 c0 7e a2 96 bd fc c1 f7 3d 63 ea 41 c0
       -3.0397606 -0.07355212 0.120975465 -3.0299308
000360 5c 9f 6f bd 4a 4c 1e c0 3e 6b ab 3d 62 1a c0 3d
       -0.058501586 -2.4734063 0.08370064 0.09380032
000370 95 1a 32 3e 88 66 3b c0 d9 96 bf 3d 5c 7e 45 c0
       0.17392953 -2.928133 0.09354944 -3.0858374
000380 b4 53 25 3d f4 63 bd bd 76 c5 2b bd cd 19 30 c0
       0.04036303 -0.0924758 -0.04193636 -2.7515748
000390 10 58 f1 bd 4f 30 44 c0 5f b6 73 bd 46 52 a8 bd
       -0.11784375 -3.0654485 -0.059500095 -0.082188174
0003a0 9e c3 4b c0 95 b4 5a c0 35 0c 4b c0 bf 73 52 c0
       -3.1838145 -3.4172719 -3.17262 -3.2883146
0003b0 1c f6 fd 3b 78 68 28 c0 7f a9 55 c0 f2 41 6a bc
       0.007750286 -2.6313763 -3.3384702 -0.014297949
0003c0 0e c5 fa 3d 4a f2 e4 bd 73 1c 53 c0 e1 46 07 be
       0.122446164 -0.111790255 -3.2986114 -0.13210632
0003d0 0d 32 f8 3d 25 87 31 be f3 9b 4d c0 c6 51 3c c0
       0.121189214 -0.1733671 -3.2126434 -2.942491
0003e0 ce 2b e0 3d e4 a5 41 c0 fc 60 6c 3d 78 a0 ba 3d
       0.10945855 -3.0257502 0.05770968 0.09112638
0003f0 eb 6c 0c 3e 2a 44 a3 3d 8b dd 44 c0 2e b7 87 bd
       0.13713424 0.07971986 -3.076022 -0.06626736

arch.3.weight f4 [128, 256]
000000 7c e1 25 3f 54 a0 a3 bc 36 cb f7 be c4 18 ab 3c
       0.64797187 -0.019973911 -0.48397225 0.020885833
000010 09 c1 82 3e 6a 07 8e 3f 0e 55 dc 3e 92 33 35 3e
       0.255379 1.1096013 0.43033642 0.17695454
000020 04 3a 61 3e 83 60 d5 be 50 a1 b2 3c ef 64 49 3f
       0.21994787 -0.41675195 0.021805435 0.7866964
000030 26 19 23 bd df 6f 1a 3d 5a 2c 7d 3d a4 af e3 3c
       -0.039818905 0.037704345 0.061809875 0.027793713
000040 0b b2 fa 3e c2 f5 3b bd d6 36 36 3f 7b 03 ba bc
       0.4896396 -0.04588867 0.71177423 -0.022706738
000050 e1 44 14 3f da 80 d3 3e c5 ab be 3d 2c 84 75 be
       0.579176 0.41309243 0.09310106 -0.23976201
000060 2d 9a cd bc c2 53 77 3f f6 1b 0a 3d 3e 68 4c bd
       -0.02509793 0.9661218 0.033718072 -0.0499041
000070 e6 24 fa 3d 64 1a 32 bf 67 82 ee 3d 34 64 12 bc
       0.12214069 -0.6957152 0.11645966 -0.008935023
000080 a8 50 01 3d a8 4c 1d 3e 3d 0a 58 bd 8c 58 76 bd
       0.03157106 0.15361273 -0.05274414 -0.06014304
000090 6f 9a 6b 3c 00 d4 8b b8 b0 2a cd 3c ce b4 a1 bd
       0.014380082 -6.6675246e-05 0.025044769 -0.07895814
0000a0 77 c1 15 3e ed 4a d7 bc 3f 7f 42 3d 3e e1 12 bd
       0.14624582 -0.026280845 0.047484633 -0.03585934
0000b0 7f 1c 5a 3e ea 5a 0b 3d 6c 9f 07 bd 92 b5 ab 3e
       0.21299933 0.03402225 -0.03311102 0.33536965
0000c0 a4 82 8e 3f 37 30 47 3f e4 dd 61 3d df 8e 42 3d
       1.1133618 0.77807945 0.055143252 0.047499534
0000d0 28 e9 44 3c 88 0b 6b 3c 74 18 18 3d 60 e5 51 bd
       0.012018479 0.014346011 0.037132695 -0.05124414
0000e0 e8 cc ad bc e8 17 89 3c 9a 92 6a 3d ec 8b 1e bd
       -0.021215871 0.016735032 0.057268716 -0.03870766
0000f0 bc 3d e7 3e 50 5a 47 3f d3 c8 54 bc 6c 3e d5 bc
       0.45164287 0.7787218 -0.012987333 -0.026030742
000100 b0 68 2f bc bb 96 f0 3e eb e3 1e 3e fb 3f 51 3d
       -0.010706112 0.46989998 0.15516631 0.051086407
000110 23 ce 1a bd 43 68 86 3d b0 3f 2d 3f 40 4d b0 3a
       -0.037794244 0.06562855 0.67675304 0.0013450757
000120 d3 3e 59 3c 55 76 84 3e df c9 67 3e 14 1e b0 bc
       0.013259607 0.2587153 0.22635601 -0.021498717
000130 c3 45 36 3d 80 77 f8 3a 18 fb 7c 3f 14 e9 d8 bc
       0.044500124 0.0018956512 0.9882064 -0.026478328
000140 8c 26 8c 3b 55 26 68 3d 10 0c 0c bc e6 e1 04 3f
       0.004277056 0.05667718 -0.008547798 0.51907194
000150 81 db 4e bd ec d3 37 bd eb 87 e2 3e 00 4b 4c 3a
       -0.050502304 -0.04487984 0.44244322 0.00077931583
000160 66 aa 64 3d c4 4d ea 3e 7c e5 2a 3d 80 69 d8 3a
       0.055826567 0.45762455 0.04172276 0.0016510934
000170 5b 0c b7 3e 8d dd 34 3f 6c c1 73 bd 2a 91 0e bd
       0.35751614 0.7065056 -0.059510633 -0.034806408
000180 4c b9 21 bd a6 80 a6 3e 6c 56 07 3f bf 33 05 3f
       -0.039483353 0.32520026 0.52866244 0.52032083
000190 4c 1f 15 3d 84 9c 80 3e bc 0b ef 3c 1c ef d2 bc
       0.0364068 0.25119412 0.0291804 -0.025748782
0001a0 e2 90 56 3c 84 78 51 3e ed 5d 36 3d 23 f1 d0 bc
       0.013096066 0.2045613 0.04452317 -0.025505608
0001b0 c4 59 89 bc 2d d6 48 3e bb 96 10 bf b4 2e 06 bd
       -0.016766436 0.19612952 -0.56479996 -0.032759383
0001c0 fc 76 e0 3d 67 f0 6e 3f 2b a4 0e 3f 4e a4 19 bd
       0.109601945 0.93335575 0.5571925 -0.03751021
0001d0 ae a6 10 3e 10 44 f1 3b be 23 6b bd b5 a1 bd be
       0.14126083 0.00736285 -0.057407133 -0.37037435
0001e0 20 87 0c bb 82 b4 6a 3d c0 a8 42 3c 7a f5 32 bd
       -0.0021442845 0.057301052 0.011881053 -0.043691136
0001f0 70 b4 16 bf b6 d2 e2 3e a6 9f af 3d 14 2b 64 bd
       -0.58869076 0.44301385 0.085753724 -0.055705145
000200 c0 07 a0 ba 4a ea 27 3d 83 42 cd 3c 4a 47 49 3f
       -0.0012209341 0.04099492 0.02505613 0.78624403
000210 38 30 84 3c 1f 55 3f 3d ed a6 cf 3d 22 f0 15 bd
       0.016136274 0.046712037 0.101392604 -0.03660596
000220 aa 66 d0 3d b8 33 1f 3e 53 76 10 bd af f3 fc 3c
       0.101758316 0.15547073 -0.035269093 0.030877916
000230 16 c2 3e bd 70 42 0d 3f 38 1a 3f bc b6 d0 b8 bc
       -0.046571814 0.551795 -0.011663966 -0.022560459
000240 a0 cc fd 3c 04 9d 27 3d 5c 26 9b 3e cd 1d d8 3d
       0.030981362 0.040921226 0.30302703 0.10552559
000250 6f d1 3e bc 45 4d 24 3f 64 bc af 3c d0 12 42 3f
       -0.011646613 0.64180404 0.021452136 0.75809956
000260 e6 a3 8b bb ee 69 8f 3e d5 6a 0f 3f 35 75 3a 3f
       -0.0042614816 0.28010505 0.5602239 0.72835094
000270 ed ea e0 3d 53 26 fb 3c 4e a7 09 3d 1a 0a 71 3f
       0.109823085 0.030657923 0.03360682 0.9415604
000280 ce 3d 16 3e e2 dd 56 3f 8a 87 af 3e 44 75 d4 bc
       0.14672014 0.83932316 0.34283096 -0.025934823
000290 0a cb 05 3d ae b6 1f 3d a0 81 5b 3f 10 61 54 3d
       0.032664336 0.038992576 0.8574467 0.05185038
0002a0 0a d1 47 3d 49 6d 86 3c 4d 44 d2 3e 92 04 78 3d
       0.04878334 0.016409533 0.41067734 0.060551234
0002b0 02 8a fe 3e e7 dd bc 3e e8 da 2e 3d e1 8c 29 3e
       0.49714667 0.36888048 0.042689234 0.16557647
0002c0 c7 ff 1b 3f dd 8d 6d be be 13 3c bd 88 dc 3f bc
       0.6093716 -0.23198648 -0.045917265 -0.011710294
0002d0 de ef 58 3d 0e 8a 0b 3d 89 ee 88 3f b7 64 33 3f
       0.05296313 0.034067206 1.0697795 0.70075554
0002e0 44 dd 3b bd a1 fe 43 3c e6 35 97 3d 8c 77 7f 3d
       -0.045865312 0.011962564 0.07383327 0.06236987
0002f0 db aa bd bc d3 9c e3 bc da 93 bb 3e 20 2f f9 3b
       -0.02315276 -0.02778474 0.3663624 0.0076044947
000300 37 4b 0b 3f d2 e8 28 bc 62 21 82 3e c3 54 3a 3f
       0.54411644 -0.010309415 0.25416094 0.72785586
000310 69 eb 82 3e 3a 6a 2d 3e 60 5e 24 bd 81 df 4e 3f
       0.2557023 0.16935053 -0.040129066 0.8080979
000320 48 27 5e 3d 76 9b 12 3d 7e 22 37 3f 12 02 08 3f
       0.05423668 0.03579279 0.71537006 0.5312816
000330 d0 98 d7 bc 87 cc 9e 3e c0 49 92 bb 47 c5 69 3f
       -0.026317984 0.31015417 -0.004464358 0.91316646
000340 47 82 f6 bc 30 96 e2 3e 46 72 77 bc b4 a9 2a 3f
       -0.030091418 0.4425521 -0.0151029285 0.66665196
000350 43 a4 8d 3e 54 35 e5 3c dc 69 01 3a 3b da 4b 3e
       0.27664384 0.02797953 0.0004936734 0.19907467
000360 dc 89 38 bd 14 81 eb bd 00 f9 e9 3b 88 17 cf 3c
       -0.045053348 -0.11499229 0.007140279 0.025279775
000370 56 f4 8a 3d f3 f3 07 3f 18 95 29 3d 22 7d 0a 3f
       0.06784885 0.5310661 0.041401953 0.5409719
000380 1c fe 3b bd 0a 22 68 bd 44 12 94 3d 89 af a2 3f
       -0.045896634 -0.056673087 0.072300464 1.2709819
000390 33 9c 63 3d fe 9d 13 3f ce a9 c1 3d df b6 68 bc
       0.055568885 0.5766295 0.09456216 -0.014203756
0003a0 48 3a 04 3f 2d 8d e1 3e 61 4f d2 3e 20 5a e8 3d
       0.5165143 0.4405302 0.41076186 0.11345315
0003b0 af 9c 7a 3c 15 64 fb 3e ea 95 26 3f 2b f5 66 3d
       0.015296145 0.49099794 0.650725 0.056386154
0003c0 74 c8 dd 3c 54 d1 6c bd df 13 45 3f 97 28 05 bd
       0.027073123 -0.05781682 0.76983446 -0.032509413
0003d0 0f fc 69 bd 7e 22 02 bd 07 ff af 3e 70 1f 1b 3f
       -0.057125147 -0.031771176 0.34374258 0.60594845
0003e0 20 e2 36 bb fa 1b 25 bc 14 a2 eb 3c fc 97 54 bd
       -0.0027905777 -0.010077471 0.028763808 -0.051902756
0003f0 1f 34 01 3c 7a db 2b bd 6b b5 98 3f a4 1f 16 bd
       0.007885962 -0.041957356 1.1930364 -0.03665127

arch.3.bias f4 [128]
000000 93 ac 7d 3b a9 1c 41 bd 57 fa 3d 3d 2e 6c 51 3d
       0.0038707599 -0.047146473 0.04638132 0.05112856
000010 5b 76 56 bd e3 a1 aa 3c be f5 66 bd 33 23 32 3d
       -0.052358966 0.020829147 -0.0563867 0.0434906
000020 c0 86 cf 3b 40 9c cd bc 27 fb 5e bc 48 b0 a1 3c
       0.006333202 -0.02509892 -0.013609684 0.019737378
000030 84 9e 4a 3d 89 d7 2f bd 6f 60 86 bc 44 46 28 3d
       0.04946758 -0.04293016 -0.016403405 0.041082636
000040 d0 47 34 3d 3a 7c d4 bc 6c d4 1d 3d 21 02 1d bd
       0.0440138 -0.025938142 0.03853266 -0.03833211
000050 36 2e 5b 3d 52 02 04 bc 91 e0 19 bc ed 82 03 bd
       0.053510867 -0.008057194 -0.00939192 -0.032107282
000060 1f d0 34 3d 12 93 56 3d c6 33 a9 bc 66 2f 99 3c
       0.044143792 0.05238635 -0.02065457 0.01869936
000070 6b f6 6e bd 00 28 67 3d 8f 87 6b 3d 29 87 85 bc
       -0.05834047 0.05643463 0.057502326 -0.016299801
000080 66 1a 5f bd f0 2f 9d bb 60 27 37 3c a2 eb 3c 3d
       -0.054468535 -0.0047969744 0.011178821 0.046123154
000090 3d 79 11 3d c2 34 ef bc cc 3c df bc b4 b6 68 bc
       0.035516012 -0.029199962 -0.02725067 -0.014203716
0000a0 9c 0a e5 3c 31 cf 17 3d 84 b6 52 3c 57 90 5a bd
       0.02795916 0.037062827 0.012860898 -0.05336031
0000b0 fe 46 df bc af 91 ac 3a 54 6a 4c bb 57 4f 32 bd
       -0.027255531 0.0013165976 -0.0031191306 -0.043532696
0000c0 62 82 61 bd a3 b0 43 3b f2 54 45 3d 0b e6 fc 3c
       -0.055055983 0.0029859922 0.048176713 0.030871412
0000d0 90 4c 44 bd 2f e3 f7 bb c1 3b 5b bc 32 3d 4d 3c
       -0.04792458 -0.007564924 -0.013380946 0.012526797
0000e0 92 66 38 bd 02 38 3c 3d 39 bb b4 3c fc 95 48 bd
       -0.045019694 0.04595185 0.022061931 -0.04897116
0000f0 59 86 79 3d d3 6a 06 3b 19 89 45 3d 48 b1 41 bd
       0.06091914 0.002051045 0.04822645 -0.04728821
000100 c8 af 5b 3c e4 d8 90 3c cd 25 8e bc 26 87 3d bc
       0.013408609 0.017681547 -0.01735201 -0.011567866
000110 a6 13 aa bc fd 1e 38 bd 5c 8d 79 bc d7 98 09 bd
       -0.020761322 -0.044951428 -0.015231457 -0.033593025
000120 5c e2 07 3d 11 17 02 bd fc 91 3b 3d 22 73 aa 3b
       0.033174857 -0.03176028 0.04579352 0.005201713
000130 d1 62 62 3a 0a 40 5e bd 09 89 92 3b 0d 34 73 bc
       0.00086359406 -0.05426029 0.0044719023 -0.014843953
000140 ee 22 c4 bc 3c 5a 45 3d a9 9c 6a 3d 28 96 b4 bb
       -0.023942437 0.048181757 0.05727831 -0.005511064
000150 72 a5 86 3b 50 a2 12 bd 24 28 34 bd 6c d6 5a 3c
       0.004109078 -0.035799325 -0.043983594 0.013356786
000160 31 01 f4 bc f4 48 00 bd 92 f7 a9 bc 63 26 16 bc
       -0.029785724 -0.031319574 -0.020747934 -0.009164426
000170 13 c3 75 3c b8 99 9a bc e2 54 15 bd 62 78 35 bd
       0.015000123 -0.018872127 -0.036457904 -0.04430426
000180 67 77 4c 3d c6 7c 6a bd 09 f5 3d 3d 19 3b 9c bb
       0.04991856 -0.0572479 0.04637626 -0.004767787
000190 71 14 14 b9 22 f0 98 3c 10 2f 14 3d d8 2e 75 3d
       -0.00014121995 0.018669192 0.036177695 0.059859127
0001a0 46 ab e9 bc 7d 50 91 3c f3 24 4c bd c2 d8 73 3d
       -0.028524052 0.017738575 -0.049839925 0.05953289
0001b0 90 55 2c 3d d7 b2 63 bc 0e e3 0c bd e2 3c 1a bd
       0.042073786 -0.013897619 -0.034396224 -0.03765572
0001c0 13 20 48 3d 7b 67 15 bc 1d 89 76 bd e1 dd 39 bd
       0.048858713 -0.00911891 -0.060189355 -0.045377616
0001d0 0f 16 aa 3b f3 59 a7 bc 1e 6c 9f b9 64 3e 36 3d
       0.005190618 -0.020428633 -0.00030407397 0.044493094
0001e0 2a a7 40 3c ff 00 28 bc 41 68 f8 3c dd 96 ec 39
       0.011758605 -0.010254144 0.03032315 0.0004512583
0001f0 a5 1d 6a bc d5 d4 29 bc c4 c2 3d bd 77 a8 12 3c
       -0.014289294 -0.0103656845 -0.04632832 0.008951298

arch.4.weight f4 [128]
000000 de b4 ed 3f d0 32 8c 3f 8f 40 34 3f 55 03 5f 3f
       1.8570821 1.0953007 0.7041101 0.8711446
000010 a5 76 c2 3f 15 df 8c 3f d6 0a 75 3f 1d 15 a8 3f
       1.5192457 1.1005579 0.9571966 1.3131443
000020 1e 6d 12 3f b8 97 f1 3f af da d5 3f 7f 6f 01 40
       0.5719775 1.8874426 1.6707362 2.0224302
000030 50 47 94 3f 22 16 22 40 60 b2 07 40 32 18 d3 3f
       1.1584263 2.5326009 2.1202621 1.6491759
000040 38 c5 09 40 ab 0f 07 40 5d e3 f8 3f 29 cc ef 3f
       2.1526623 2.1103313 1.9444386 1.873418
000050 a6 bd d6 3f 4a 96 08 40 0c a0 06 40 33 16 09 40
       1.6776626 2.134173 2.1035185 2.14198
000060 70 37 1b 40 42 4b d0 3f 04 9e 0b 40 58 72 cf 3f
       2.4252586 1.6272967 2.1815195 1.620677
000070 36 97 ec 3f d5 0d 0d 40 bc 23 bc 3f f4 73 46 3f
       1.8483646 2.2039692 1.4698405 0.7752068
000080 6a 68 09 40 be e3 e9 3f fb fe ae 3f da a4 c5 3f
       2.146998 1.8272626 1.3671564 1.5440934
000090 e7 c1 b0 3f 0c 0d eb 3f 07 78 cb 3f cc 4b d5 3f
       1.3809174 1.8363357 1.5896004 1.6663756
0000a0 be 83 e3 3f 54 2c 11 40 27 1d 5d 3f 61 ad ea 3f
       1.777458 2.2683306 0.8637261 1.8334161
0000b0 c7 60 f2 3f 7d 2a ff 3f 83 98 1c 3f 75 bd 3f 3f
       1.8935784 1.9934841 0.61170214 0.74898463
0000c0 9f 95 e6 3f a1 89 00 40 ed f3 11 40 e9 38 09 40
       1.8014411 2.0084002 2.280513 2.1440985
0000d0 79 8f e5 3f af 6b de 3f 5e 1b f4 3f 8d d4 d7 3f
       1.7934409 1.7376612 1.9070852 1.686174
0000e0 e8 1f 7f 3f 39 35 21 3f 08 c4 fd 3f 64 7d 03 40
       0.9965806 0.62971836 1.9825449 2.0545282
0000f0 3b 7c 09 40 dd 3e c5 3f ba 18 ab 3f bf 90 76 3f
       2.1482074 1.5409809 1.3366921 0.96314615
000100 98 35 cd 3f 04 03 da 3f 61 8e de 3f 5e 41 e8 3f
       1.603198 1.703217 1.73872 1.8144948
000110 28 a2 81 3f 0d d6 b1 3f 47 13 18 40 33 8c d6 3f
       1.0127611 1.3893448 2.3761766 1.6761535
000120 93 48 d6 3f 3f 76 e0 3f 4a c9 a5 3f ca 08 0f 40
       1.6740898 1.7536086 1.2952054 2.2349114
000130 87 d0 cf 3f 6f f9 06 40 9f 64 08 40 cd 69 03 40
       1.6235512 2.1089742 2.1311414 2.0533326
000140 b5 00 1f 40 41 58 18 40 fd 2f 93 3f ff c2 a0 3f
       2.4844182 2.3803866 1.149902 1.2559508
000150 e4 01 b9 3f 66 dc d9 3f d4 34 0a 40 82 d6 b1 3e
       1.4453702 1.7020385 2.1594744 0.3473397
000160 bd 01 1c 40 f5 4b f3 3f 5e 2a 08 40 4a a2 a5 3e
       2.437606 1.9007555 2.127586 0.3235038
000170 54 d4 91 3e 2c d3 c2 3f a5 d3 03 40 82 02 cf 3f
       0.28482306 1.5220695 2.0597928 1.617264
000180 eb f4 f1 3f 2b fc e5 3f 52 fe 90 3f ec bf fb 3f
       1.8902868 1.796758 1.1327612 1.9667945
000190 10 22 e2 3f 53 1c af 3f 71 7a 93 3f 5a 86 b6 bd
       1.7666645 1.3680519 1.1521741 -0.08912344
0001a0 ae df b5 3f ee 67 a2 3f 91 63 87 3f ff 86 bf 3f
       1.4208887 1.2687967 1.057726 1.4963073
0001b0 dd 27 99 3f a7 c2 e3 3f ea cd a2 3f b4 a6 d4 3f
       1.196529 1.7793778 1.271909 1.6613374
0001c0 3f c3 f8 3f 71 49 c7 3f 01 32 bf 3f 51 fe e4 3f
       1.9434584 1.5569288 1.4937135 1.7890111
0001d0 f3 55 1b 40 65 d6 e5 3f 92 92 48 3f 96 19 e5 3f
       2.427121 1.7956053 0.7834865 1.7898433
0001e0 f3 54 da 3f 6a 4f c0 3f 8d 04 ed 3f 3a ab e9 3f
       1.7057174 1.5024235 1.8517014 1.8255379
0001f0 e3 36 d7 3f a6 8e 03 40 dc 25 e0 3f 9b fb 07 40
       1.6813625 2.0555816 1.7511554 2.1247318

arch.4.bias f4 [128]
000000 28 45 e5 3d 0c 79 f5 3c a0 63 2c be d3 b2 d5 bd
       0.11194831 0.029964946 -0.16834879 -0.10434499
000010 b5 b4 b4 3e 08 e5 d0 3d 87 46 3b be 74 c3 53 be
       0.3529412 0.10199934 -0.18288623 -0.20680028
000020 45 57 82 be 1e 0e b6 be b5 ac a6 be 9f ad 85 3e
       -0.25457206 -0.35557646 -0.3255364 0.26109025
000030 0a 9e b9 be b5 84 39 bd c0 c1 0d be c0 0e da 3c
       -0.36253387 -0.045292575 -0.13843441 0.026618361
000040 02 b1 62 bc 52 2b e8 bd 77 ae d5 3e 97 fe bf bd
       -0.013836147 -0.11336388 0.4173467 -0.09374731
000050 d6 7c 22 be f6 c8 89 be c9 0c 0d 3d 5f 6a aa bd
       -0.15867934 -0.26911134 0.03443602 -0.0832107
000060 97 cd 8b 3e 89 73 c9 3e 14 22 51 3c 27 48 a1 3e
       0.2730529 0.3934596 0.0127644725 0.3150036
000070 be b9 bc be 1f 38 78 3d 70 af 80 3e ab cb 63 3d
       -0.3686046 0.060600396 0.25133848 0.055614155
000080 75 d0 e4 3e 5a 4e ab 3e 1e ea e2 3d 88 a3 c5 be
       0.4469029 0.33458215 0.110798106 -0.38601327
000090 12 f8 c5 3e 02 ac 8f 3d ec 86 04 bf a7 07 22 be
       0.38665825 0.0701523 -0.51768374 -0.15823232
0000a0 3c 6f e6 be e2 78 07 bc 35 df 7d bd b6 7e 45 be
       -0.4500674 -0.008268567 -0.061980445 -0.19286618
0000b0 87 86 d5 3d cf 18 cf 3d 15 94 d2 be 50 a0 b7 3c
       0.1042605 0.10112154 -0.41128603 0.02241531
0000c0 b4 63 8a bb 44 a4 95 be ec 8e d5 3e 03 7a 41 bd
       -0.0042233113 -0.29226887 0.41710603 -0.0472355
0000d0 07 2d 20 3e 01 ac b7 be 9a c3 d6 3d 6e ea ae 3d
       0.15642177 -0.35873416 0.10486527 0.08540808
0000e0 90 b2 35 bf bc 7b a0 3e 74 18 8b bd 54 c5 bf bd
       -0.7097559 0.31344402 -0.067917734 -0.09363809
0000f0 f6 8f 83 3e 7e f4 69 be a3 1f 80 be c5 90 ef bc
       0.2569577 -0.22847173 -0.25024137 -0.029243836
000100 0c 2c c1 3e 1a 53 9f be b5 5b b1 3c 63 6a 01 bf
       0.37728918 -0.3111809 0.021650175 -0.5055296
000110 68 be 3b 3e 36 b4 5d bd 46 05 b3 be 63 8b d3 3d
       0.18334353 -0.05412694 -0.3496496 0.1032932
000120 15 23 3d be ed f0 c3 bd 4c 5a 82 3d c8 1b 89 be
       -0.18470414 -0.09567437 0.06364879 -0.26779008
000130 37 80 2a 3c 1b a6 f3 bd d4 02 a8 3e bd 5b dc bd
       0.010406545 -0.118969165 0.32814658 -0.10759685
000140 bb b5 4b 3c 3c 1b ef 3e c0 a2 b9 3e 0b 82 44 3d
       0.012433465 0.46700466 0.3625698 0.04797558
000150 36 eb 8f 3a b7 b2 c3 bd 2b 19 28 be 2c 3c df be
       0.0010980133 -0.095555715 -0.16415851 -0.43600595
000160 f2 a8 26 3e 73 0c 39 3c 36 07 6d be 95 5c d5 bd
       0.16275385 0.011294472 -0.23147282 -0.10418049
000170 84 af d3 bd f9 d8 fb 3e 4a 20 31 be 7f f0 4c bd
       -0.10336211 0.49188974 -0.17297474 -0.050034042
000180 8a f3 a5 3d a1 68 f0 be 5f 52 65 bf 8e 3d 05 be
       0.08103092 -0.46954826 -0.89578813 -0.13011762
000190 97 df 97 be 76 7e 03 3e 0b 59 2a 3e ca 25 23 3f
       -0.29662773 0.1284121 0.1663553 0.63729537
0001a0 d6 ce 43 be 90 7d 17 be e1 f3 30 3e 1c f3 91 be
       -0.1912187 -0.14793992 0.17280532 -0.2850579
0001b0 c6 1a 10 be 98 18 01 bd 91 42 b0 3e 7a 34 ec 3d
       -0.14072713 -0.031517595 0.34425786 0.115334466
0001c0 17 89 00 bf 93 31 29 3e 21 5c c2 3c ad 71 98 3e
       -0.5020918 0.16522817 0.023725571 0.29774228
0001d0 3f 23 f9 3e 8a ad 42 3d 3c 3e 27 3d a8 1a 7d bd
       0.48659703 0.04752878 0.040830836 -0.061793
0001e0 31 4b 52 3d da 19 7d bd bb 18 3f be 69 3a d4 bd
       0.05134124 -0.061792232 -0.18661778 -0.10362703
0001f0 55 d1 8a bd 93 52 e5 3d 80 f0 67 3e c7 fc 0e 3f
       -0.06778208 0.111973904 0.22650337 0.5585446

arch.4.running_mean f4 [128]
000000 59 7c dc 4a a2 6f 97 ca fa 9c 9e 4a 57 fe af ca
       7.2248765e+06 -4.962257e+06 5.197437e+06 -5.7669555e+06
000010 26 be 94 4a e8 d6 b9 ca 80 2a b9 ca 18 07 b5 4a
       4.874003e+06 -6.089588e+06 -6.06752e+06 5.931916e+06
000020 7c 37 66 4a 4d 2c d1 4a b3 d5 a6 4a 73 fc b2 ca
       3.771871e+06 6.8541825e+06 5.4668415e+06 -5.8650175e+06
000030 22 8d a5 ca 5a 6a f1 4a 4e b7 da 4a 89 6b be 4a
       -5.424785e+06 7.910701e+06 7.166887e+06 6.2396845e+06
000040 98 01 f8 ca 10 1e c3 4a 81 79 ec ca 3c 6c da ca
       -8.126668e+06 6.393608e+06 -7.7488005e+06 -7.157278e+06
000050 58 49 c9 ca 31 50 68 4a 98 2d cc ca 3f 77 cc ca
       -6.595756e+06 3.8062202e+06 -6.690508e+06 -6.6999355e+06
000060 90 7d df 4a 98 b9 9e ca ab db db ca f6 cb c6 ca
       7.323336e+06 -5.2011e+06 -7.2043095e+06 -6.514171e+06
000070 14 86 c8 ca 79 07 e9 ca 53 3d c7 4a 25 dc b9 ca
       -6.570762e+06 -7.6359005e+06 6.5286815e+06 -6.0902585e+06
000080 6e 89 bf 4a 7c 43 bf 4a bc 2f b5 4a d3 54 9a ca
       6.276279e+06 6.267326e+06 5.937118e+06 -5.0571295e+06
000090 8b 8f aa ca d7 78 ae ca db c8 ee 4a ce 1e d0 ca
       -5.5889335e+06 -5.7170995e+06 7.8244935e+06 -6.819687e+06
0000a0 c4 8e d2 ca 10 f5 cf ca 9e 08 bc 4a 64 72 bc ca
       -6.899554e+06 -6.814344e+06 6.161487e+06 -6.175026e+06
0000b0 15 f1 b9 4a 9f 39 c9 ca 16 0e 7b 4a 46 eb 9c 4a
       6.0929385e+06 -6.5937435e+06 4.1132855e+06 5.141923e+06
0000c0 21 d8 ee 4a 25 29 d8 4a 88 68 ec ca 70 f6 d3 4a
       7.8264485e+06 7.0831545e+06 -7.746628e+06 6.945592e+06
0000d0 ce fe d5 4a 28 d7 b4 4a 9c a2 af ca 8c 89 b1 ca
       7.012199e+06 5.92578e+06 -5.755214e+06 -5.817542e+06
0000e0 91 7c b3 ca a9 a8 c2 ca ae b8 ad ca 9d ae d7 4a
       -5.8814165e+06 -6.3785805e+06 -5.692503e+06 7.0674705e+06
0000f0 09 16 d7 4a ca b2 a8 ca b3 a5 b9 4a 30 af bb ca
       7.0479405e+06 -5.527909e+06 6.0832895e+06 -6.15004e+06
000100 dc 2d ba ca 98 20 d5 4a 62 40 d1 ca a8 ae c5 ca
       -6.100718e+06 6.983756e+06 -6.856753e+06 -6.477652e+06
000110 9a 3f 93 4a 21 2c ac ca 17 b0 ce ca 71 56 db 4a
       4.825037e+06 -5.6417445e+06 -6.7727475e+06 7.1872565e+06
000120 2c 61 b0 4a e3 66 bf ca a7 38 9a 4a 29 6b e2 ca
       5.779606e+06 -6.2718575e+06 5.0535235e+06 -7.4192845e+06
000130 66 8d bd 4a c3 17 d1 4a ff 1f e2 ca 5c 7b c0 4a
       6.211251e+06 6.8515535e+06 -7.4096635e+06 6.307246e+06
000140 0e f9 dd 4a 4a 00 b8 4a 47 49 8e 4a 04 61 89 ca
       7.273607e+06 6.029349e+06 4.6624355e+06 -4.501634e+06
000150 03 dc 90 ca e1 7d ad ca 24 1f d9 ca 1f a1 a5 4a
       -4.7467535e+06 -5.6849765e+06 -7.114642e+06 5.4273435e+06
000160 51 4a d2 ca 3a d3 d8 ca 29 92 c4 4a be 7e a3 ca
       -6.8907925e+06 -7.104925e+06 6.4412365e+06 -5.357407e+06
000170 83 ca 84 ca 1e b6 ba ca 2c 8c c3 ca b3 0a bd 4a
       -4.3512975e+06 -6.118159e+06 -6.407702e+06 6.1945215e+06
000180 fb 2c b8 4a 06 69 eb 4a 67 0a a5 4a 56 fd dc ca
       6.0350695e+06 7.713923e+06 5.4080515e+06 -7.241387e+06
000190 c3 e8 dc 4a 78 68 be ca 22 d0 a5 ca 25 e6 08 ca
       7.2387535e+06 -6.239292e+06 -5.433361e+06 -2.2429532e+06
0001a0 10 28 a4 ca c5 7e b5 ca 88 79 c0 4a db 50 cc ca
       -5.37908e+06 -5.9472345e+06 6.307012e+06 -6.6950215e+06
0001b0 62 f0 e3 4a 12 09 bb ca 9c 14 b6 ca 5e 9f cb ca
       7.469105e+06 -6.128777e+06 -5.966414e+06 -6.672303e+06
0001c0 a2 f7 d6 4a 57 0e cc 4a ab 7d 9d ca e8 10 e3 ca
       7.044049e+06 6.6865075e+06 -5.1606615e+06 -7.4405e+06
0001d0 9f db f8 ca 22 23 db ca bc 5a b3 4a c6 1a d6 4a
       -8.1545755e+06 -7.180689e+06 5.877086e+06 7.015779e+06
0001e0 3a e1 d5 ca fc 7a a1 ca e6 1a 9d ca ec 1f e0 ca
       -7.008413e+06 -5.29139e+06 -5.148019e+06 -7.344118e+06
0001f0 48 24 c1 4a b6 07 b1 ca bf 69 a8 4a 6f 06 f0 4a
       6.328868e+06 -5.800923e+06 5.5185595e+06 7.8651435e+06

arch.4.running_var f4 [128]
000000 03 8d 87 55 5a 60 02 55 18 8f 11 55 d1 f7 2e 55
       1.8629964e+13 8.959396e+12 1.0002736e+13 1.2023712e+13
000010 6c bb f8 54 4b ba 46 55 09 88 41 55 cf 3d 36 55
       8.5463705e+12 1.3656464e+13 1.3299376e+13 1.2523536e+13
000020 d3 e5 9e 54 0e c5 72 55 64 9a 1b 55 80 28 36 55
       5.459685e+12 1.668301e+13 1.0692963e+13 1.2517816e+13
000030 49 5c 20 55 47 e3 9f 55 5b 4d 86 55 fe 46 4a 55
       1.1019889e+13 2.1974812e+13 1.845835e+13 1.3900391e+13
000040 da fa ae 55 62 64 59 55 5c b4 9c 55 c9 bf 85 55
       2.4049053e+13 1.4939073e+13 2.1537306e+13 1.8382345e+13
000050 b4 35 70 55 72 63 ad 54 74 a1 68 55 3e 69 65 55
       1.650709e+13 5.957582e+12 1.5986258e+13 1.5765011e+13
000060 ab 39 8d 55 ac df 0c 55 d4 48 88 55 8c dc 66 55
       1.9409853e+13 9.680768e+12 1.8730797e+13 1.5864682e+13
000070 ae 6e 63 55 1a c1 98 55 ee 58 5f 55 9d d8 3d 55
       1.5629032e+13 2.0994392e+13 1.5348315e+13 1.3046128e+13
000080 bb 57 51 55 3a f5 49 55 9f 72 3a 55 e2 35 0d 55
       1.4385921e+13 1.3878442e+13 1.2812591e+13 9.70391e+12
000090 3b e0 1f 55 a4 0a 2b 55 31 00 a2 55 97 20 76 55
       1.0986588e+13 1.1753887e+13 2.2265213e+13 1.691374e+13
0000a0 8c 6a 79 55 7b e7 72 55 c8 9a 41 55 e8 a8 43 55
       1.7139751e+13 1.6692251e+13 1.3304408e+13 1.3445638e+13
0000b0 b9 5f 43 55 ca 02 65 55 12 8f c2 54 a4 fa 07 55
       1.3425993e+13 1.5737509e+13 6.684992e+12 9.34441e+12
0000c0 19 12 a2 55 82 d9 81 55 6b f0 9c 55 d8 50 75 55
       2.2274827e+13 1.7846399e+13 2.156955e+13 1.6857973e+13
0000d0 e4 43 80 55 ce 01 39 55 15 06 2c 55 16 ad 3d 55
       1.7628635e+13 1.2713588e+13 1.1821383e+13 1.3034444e+13
0000e0 94 4c 3c 55 3a 6a 51 55 41 40 29 55 3d 00 87 55
       1.2939818e+13 1.4390886e+13 1.163084e+13 1.8554387e+13
0000f0 9e 65 82 55 db 8d 20 55 93 c3 41 55 7f 2e 49 55
       1.792162e+13 1.1033195e+13 1.3315358e+13 1.3825096e+13
000100 d5 dc 40 55 a3 2f 7b 55 11 cf 73 55 0a ee 62 55
       1.3253419e+13 1.7261376e+13 1.6754417e+13 1.55945e+13
000110 2d d5 f7 54 80 22 25 55 59 fb 74 55 35 55 87 55
       8.5154673e+12 1.1347975e+13 1.6835023e+13 1.8600004e+13
000120 16 5c 30 55 e2 91 4b 55 07 7e 05 55 8b 30 8e 55
       1.2119347e+13 1.3989214e+13 9.173521e+12 1.9542393e+13
000130 84 56 46 55 47 d1 76 55 0c 0d 91 55 d5 57 4c 55
       1.362968e+13 1.6961169e+13 1.9935653e+13 1.404235e+13
000140 a0 e8 8e 55 b0 16 43 55 22 5b e2 54 84 72 cf 54
       1.964122e+13 1.3406388e+13 7.7775325e+12 7.127836e+12
000150 ff 01 ef 54 3b 68 34 55 b5 bc 85 55 42 2c 1d 55
       8.2122454e+12 1.2397485e+13 1.8380692e+13 1.0800838e+13
000160 a2 f8 7c 55 3a d5 82 55 91 43 56 55 ec 49 1c 55
       1.738405e+13 1.798154e+13 1.4724105e+13 1.0740082e+13
000170 94 46 cc 54 1c 77 42 55 a3 d8 51 55 07 b0 49 55
       7.0188595e+12 1.3363552e+13 1.4420524e+13 1.3859867e+13
000180 bf 65 3a 55 37 59 9d 55 94 6a 1e 55 df 82 87 55
       1.2809135e+13 2.1625813e+13 1.0886287e+13 1.862452e+13
000190 a5 59 88 55 15 5f 48 55 17 95 1a 55 d6 d0 08 54
       1.8739825e+13 1.3769419e+13 1.062282e+13 2.350477e+12
0001a0 d5 4f 1a 55 86 05 39 55 cf 52 4d 55 34 39 6b 55
       1.0604229e+13 1.2714586e+13 1.4109721e+13 1.6164432e+13
0001b0 a3 6b 90 55 60 2d 48 55 af 41 3b 55 4c f6 6b 55
       1.9848996e+13 1.3756076e+13 1.2868174e+13 1.6215192e+13
0001c0 b0 eb 7f 55 f7 c0 71 55 90 1d 0d 55 e9 09 8f 55
       1.7586733e+13 1.6613192e+13 9.697382e+12 1.965909e+13
0001d0 ab 26 ad 55 cf cd 84 55 a9 33 35 55 15 a1 7d 55
       2.3797699e+13 1.8252435e+13 1.2452093e+13 1.7429268e+13
0001e0 64 59 81 55 24 8d 10 55 1d b3 0b 55 96 f6 8b 55
       1.7777616e+13 9.933492e+12 9.600088e+12 1.92364e+13
0001f0 16 06 52 55 be 21 2f 55 90 8b 25 55 c2 55 a2 55
       1.4432724e+13 1.2034966e+13 1.1376177e+13 2.2311151e+13

arch.6.weight f4 [2, 128]
000000 6d 9c 75 be 77 d6 65 3e 9f b7 52 be 3e 57 a6 bd
       -0.23985453 0.22445093 -0.20577858 -0.08122109
000010 b9 5c b2 3d 44 52 66 3e a5 92 39 3e cf da 36 be
       0.08709092 0.2249232 0.18122347 -0.17856906
000020 57 17 fd bd 34 d8 31 bf 3b 25 d3 be 34 bb 3d 3f
       -0.12357967 -0.69470525 -0.41239342 0.74113774
000030 3d a2 03 3f 71 e8 8f be b0 13 2e bf 93 c3 87 be
       0.5141943 -0.28107026 -0.6799879 -0.265164
000040 f1 c4 aa 3e 2d 09 3d be e9 87 38 3f be eb 5b 3e
       0.3335338 -0.18460532 0.7208238 0.21476647
000050 b7 fc 35 3e 33 36 7c bf e8 2d 8a 3e 10 d3 a1 bd
       0.17772184 -0.985202 0.2698815 -0.07901585
000060 58 55 90 bf 7c 91 2e 3f 0a b6 b7 3d 0c be 21 3f
       -1.1276045 0.6819074 0.08970268 0.63180614
000070 5f 74 3a 3e 3d b4 cb 3e 22 3a f2 bd 25 70 7c 3c
       0.18208455 0.39785948 -0.11827494 0.015407597
000080 bf 46 28 3e d9 37 97 be e4 bc a9 be 02 b3 96 be
       0.16433237 -0.29534796 -0.33151925 -0.29433447
000090 87 ab 00 3f 18 24 85 3d c4 ad 2f bf 52 64 58 be
       0.5026173 0.06501025 -0.6862452 -0.21132019
0000a0 23 c1 40 3f 37 80 cf 3d 7a ea 4d bd 79 93 17 3f
       0.75294703 0.10131877 -0.050272442 0.592094
0000b0 12 8e ca 3d de c2 8d 3e 03 08 ea be 09 d9 18 bc
       0.09890379 0.27687734 -0.45709237 -0.009329089
0000c0 15 59 94 bd 3e a6 ea be bb 0f 82 3f e3 59 db be
       -0.072435535 -0.45829958 1.016105 -0.42842016
0000d0 b5 b5 f8 be 43 f3 ac bd be fe 80 3d 52 9b 2b 3f
       -0.4857613 -0.08444836 0.06298588 0.67033875
0000e0 43 8f bf 3d 73 c1 89 3e 8a 75 0f 3f 3a 34 15 bf
       0.09353497 0.26905403 0.56038725 -0.58282816
0000f0 99 f7 56 be fd 70 f6 3e 55 a6 ca be fb dc 41 3e
       -0.20992889 0.48133078 -0.39580026 0.18931954
000100 ee f8 ee 3e 1c 6b fc be 8b c0 89 3e 38 fe c1 be
       0.46674293 -0.49300468 0.2690471 -0.37889266
000110 5c 98 17 be e2 15 58 3d 9c a6 47 bd 70 4b 3b be
       -0.14804214 0.052755244 -0.048742875 -0.18290496
000120 07 f8 b1 bd 5c 78 2b 3e 2d 7e c3 bd d9 c5 42 3f
       -0.086898856 0.16745132 -0.095455505 0.7608314
000130 9a b4 5c 3d 5a e0 11 bf d7 25 10 3f a9 9f 24 bf
       0.053883173 -0.5698296 0.5630774 -0.6430612
000140 3c bf 5d bf 45 b7 6f 3d 57 12 b9 bc c1 c2 44 3e
       -0.86619925 0.05852439 -0.022591753 0.19214918
000150 71 6c aa 3e a6 6b 91 3e 69 bf b4 3e 52 07 bf be
       0.3328586 0.28402442 0.35302284 -0.37310272
000160 e7 54 8f 3f 90 a5 a2 bc f4 81 72 bf 77 4b 53 3e
       1.1197785 -0.019854337 -0.9472954 0.20634256
000170 db 00 0c bc ca 44 0a 3f f3 1e 29 3f b6 ce 31 be
       -0.008545126 0.54011214 0.6606285 -0.1736401
000180 54 ee 81 be 8b 03 51 bf a3 92 81 bf 56 56 a7 bd
       -0.25377142 -0.8164603 -1.0122875 -0.08170764
000190 dc ea 34 bf 49 7d 1c 3e 8c cd b5 bd 1a 74 d2 3e
       -0.70670867 0.15282167 -0.088770956 0.41104203
0001a0 69 67 5b bd 9f a0 aa bd ca 48 1b bd 5f e6 b0 3e
       -0.053565416 -0.08331417 -0.037911214 0.3455076
0001b0 7d 61 8a be 12 c6 0a 3e 3b 8b a9 3e 26 40 b2 3e
       -0.27027503 0.1355212 0.33114037 0.34814566
0001c0 2e 81 5d bf d7 3a bf be 7a fe 56 be 3b 13 99 3e
       -0.8652524 -0.3734958 -0.20995513 0.29897484
0001d0 f2 16 08 3f ca 83 b5 3e 2b 10 23 be 0b 00 9f be
       0.5316001 0.3545211 -0.15924136 -0.3105472
0001e0 3d 9e 48 be 46 41 86 3e e1 5e af 3d 24 5c 94 3c
       -0.19591613 0.26221675 0.085630186 0.018110342
0001f0 7e 6b 83 3e bb a0 3e 3e 09 2b e2 be 45 33 d1 3e
       0.25667948 0.18616001 -0.44173458 0.40859428
000200 28 6e e3 3e c2 e4 df 3c 00 59 e9 3d 05 4b 6e bd
       0.4441998 0.02733076 0.113939285 -0.058177013
000210 7d 42 22 3f b8 1d 18 be 7b e7 1e be e1 02 9e 3e
       0.63382703 -0.14855087 -0.1551799 0.3086157
000220 e9 65 51 3e e8 64 8b 3e 9c ed 08 3f 05 a2 bf 3d
       0.20449032 0.27225423 0.53487563 0.09357075
000230 26 36 5e 3e e3 25 80 3f c9 c0 a8 3e 69 fe a4 3e
       0.21700343 1.0011562 0.32959583 0.3222535
000240 5e b0 2e bf fd 99 32 3f 0e c4 76 be 2d 7a ee be
       -0.68237865 0.6976622 -0.24098226 -0.46577588
000250 d0 b8 91 be 2e 77 b1 be 79 50 39 bf be 1e 50 bf
       -0.28461313 -0.3466124 -0.72388417 -0.8129691
000260 c2 26 ab 3e 9c fa f8 3d ac 05 47 bf af 0b 34 3c
       0.33428007 0.12157175 -0.7774303 0.010989114
000270 11 eb 2f bf 86 37 2f bf 60 b6 b6 3e 8a eb f7 bd
       -0.6871806 -0.684441 0.35686016 -0.121054724
000280 ce 38 89 3f 65 39 1f 3f db 32 a5 3e 6b aa cf be
       1.072046 0.6219695 0.32265362 -0.40559706
000290 85 7a a7 be 90 79 14 bf b6 6d da 3d bb f1 f1 be
       -0.32710662 -0.5799799 0.10665457 -0.47254738
0002a0 60 18 20 be 87 c4 65 bf ad bb dd 3d 34 7a a5 be
       -0.15634298 -0.89753 0.10826812 -0.32319796
0002b0 a0 3a 15 3f 4d b3 f9 be 6c 10 a7 bd 65 02 eb 3d
       0.5829258 -0.48769608 -0.08157429 0.11475066
0002c0 7d ff c5 3e 93 73 14 3f 21 a0 0a bf 41 60 24 3f
       0.38671485 0.5798885 -0.5415059 0.6420937
0002d0 1f 3b cb 3d 13 d0 34 3f f7 6c 19 bf 60 56 8a 3d
       0.09923386 0.70629996 -0.5993189 0.06754756
0002e0 fb bd 35 bf 76 e0 87 bd 7c cf ee be 85 ba f3 3e
       -0.7099301 -0.066346094 -0.46642673 0.4760324
0002f0 ca 9d 4a 3f de c3 99 bc 4e 8f e3 3d 61 90 0b be
       0.79147017 -0.018770155 0.111113176 -0.13629295
000300 6b 82 c4 be 97 0d 14 3e c1 0d b7 be 5b 52 53 bf
       -0.3838075 0.14458309 -0.3575268 -0.8254754
000310 da 71 f9 bd 46 0c 82 be e3 c6 88 bf 74 9f 82 3e
       -0.121799186 -0.2539999 -1.0685695 0.25512278
000320 25 1f d3 3e 28 0b b5 be 16 15 94 bc 1c b5 1d bf
       0.412347 -0.35360074 -0.01807646 -0.61604476
000330 c0 c7 b6 3e 3f 03 56 3e 6d 7b 2b bf 94 9f 77 3e
       0.35699272 0.20899676 -0.6698521 0.24181968
000340 fd d6 08 3e 6b 70 9d 3f b6 b0 f5 3e 35 99 23 bd
       0.13363262 1.2299932 0.47986382 -0.03994103
000350 35 db 7d be f6 82 17 bf d5 56 3a bf e4 7e ac 3d
       -0.24790652 -0.59184206 -0.72788745 0.0842264
000360 02 b0 90 be 0e f1 e4 be 2f b5 bb bb ac c2 04 3e
       -0.28259283 -0.4471516 -0.005728386 0.12964886
000370 f9 04 b2 3d f3 12 c0 be 0d 19 ba be 61 76 6a 3e
       0.08692355 -0.37514457 -0.36347237 0.2289672
000380 85 c7 04 3f 8f 01 fa 3c d9 77 1d 3e f5 ff fb be
       0.5186694 0.030518321 0.1537775 -0.49218717
000390 b0 11 10 3e ce 7b 33 be 7f 12 95 be f2 dc a1 3e
       0.14069247 -0.17527696 -0.29115674 0.3161388
0003a0 09 73 ca be 3b b7 32 be f6 fc 6d 3e a9 ff 09 be
       -0.3954089 -0.1745271 0.23241028 -0.13476433
0003b0 a9 3e 43 3e 28 49 de be c8 94 bc bd 30 fe 9d be
       0.19066872 -0.4341519 -0.09208065 -0.30857992
0003c0 a2 7c 03 3f f6 cd 29 3e f7 ae d8 be ea b0 17 bf
       0.5136205 0.16582474 -0.42320988 -0.59254324
0003d0 3d 73 70 bf 65 34 52 bd 7a 8e b6 3d 6f 28 c0 3e
       -0.9392584 -0.0513195 0.08913894 0.37530848
0003e0 62 72 e2 be 9f 70 4a be d8 12 1e bf bb f4 05 bf
       -0.44227892 -0.19769524 -0.61747503 -0.52326554
0003f0 c8 c7 f3 3e 0f 59 50 bf f5 77 e3 3e 1e 52 52 3f
       0.47613358 -0.8138589 0.44427457 0.8215655

arch.6.bias f4 [2]
000000 02 7e d4 3e 17 a6 a1 3e
       0.41502386 0.3157203
